weights/checkpoints/keynet_pytorch.pth (torch_old, 79873 bytes, 45 tensors)

feature_extractor.lb_block.conv0.0.weight f4 [8, 10, 5, 5]
0	0xbf604f9e	-0.87621486
1	0xbf76142d	-0.96124536
2	0xbf8b1f3d	-1.0868908
3	0xbf8f40ed	-1.1191689
4	0xbf91aa33	-1.1380066
5	0xbe7123b3	-0.23548774
6	0xbf73cb77	-0.9523234
7	0xbf839e40	-1.0282669
8	0xbf8ba086	-1.0908363
9	0xbf908ed6	-1.129359
10	0x3f8552e6	1.0415924
11	0xbf017c9c	-0.50580764
12	0xbf735845	-0.95056564
13	0xbf898300	-1.0743103
14	0xbf9255ae	-1.1432397
15	0x3f98d771	1.1940747
16	0x3f367273	0.71268386
17	0xbf7b669f	-0.9820346
18	0xbf91f71d	-1.1403538
19	0xbf8a812b	-1.0820669
20	0x3f9412fc	1.1568294
21	0x3f87110d	1.0552078
22	0xbf860b07	-1.0472115
23	0xbf893483	-1.071915
24	0xbf846105	-1.0342108
25	0x3f8df8a9	1.109151
26	0x3f914021	1.1347696
27	0x3f96808c	1.1757979
28	0x3f9c9183	1.2231907
29	0xbf6a4264	-0.91507554
30	0xbf632c19	-0.8873916
31	0x3e9a5035	0.30139318
32	0x3f8fe5a2	1.1241953
33	0x3f8ef6c4	1.1169057
34	0x3e827124	0.25476944
35	0xbf7966d8	-0.9742255
36	0xbf519e21	-0.8188191
37	0x3d0ad570	0.033894956
38	0x3ee5a7fb	0.4485472
39	0xbec27d6a	-0.37986308
40	0xbf7a5aa5	-0.9779456
41	0xbf55c511	-0.83503824
42	0xbf1d625c	-0.6147821
43	0xbf609dba	-0.8774067
44	0xbf6f099f	-0.93374056
45	0xbf857f2e	-1.0429437
46	0xbf8f27e4	-1.1184049
47	0xbf94e1cf	-1.1631411
48	0xbf82f6c4	-1.0231557
49	0xbf7851d3	-0.96999854
50	0xbf5f7700	-0.87290955
51	0x3f69e165	0.9135955
52	0x3f959f8b	1.1689314
53	0x3f983c22	1.1893351
54	0x3f9d888f	1.2307299
55	0xbf4d1ce3	-0.801222
56	0x3f32b04a	0.69800246
57	0x3f8eff13	1.1171592
58	0x3f93cc59	1.1546737
59	0x3f95ae63	1.1693844
60	0xbf2c6474	-0.6734078
61	0x3ef20d33	0.47275695
62	0x3f94e462	1.1632197
63	0x3f8de41c	1.1085238
64	0x3f90453a	1.1271126
65	0xbea39f2e	-0.31957382
66	0x3f0c215b	0.54738396
67	0x3f8d0ac2	1.1018908
68	0x3f8fc846	1.1232994
69	0x3f81c1fa	1.0137322
70	0x3e5e3a5c	0.2170195
71	0x3f24ceac	0.64377856
72	0x3f83900a	1.0278332
73	0x3f937a0b	1.152162
74	0x3f44006d	0.7656315
75	0xbf9b6087	-1.2138833
76	0xbf9e6fad	-1.2377831
77	0xbf9f66b3	-1.2453216
78	0xbfa261da	-1.2686112
79	0xbfb07f15	-1.3788782
80	0xbfa1fba9	-1.2654926
81	0xbfa1a3b9	-1.2628089
82	0xbfaa6d5c	-1.3314624
83	0xbfa4acd0	-1.2865238
84	0xbfaafa10	-1.3357563
85	0xbf9f7264	-1.2456784
86	0xbf9edee6	-1.2411773
87	0xbfaae9bd	-1.3352581
88	0xbf935b12	-1.1512167
89	0xbf61cb4e	-0.88200843
90	0xbf9d5c14	-1.2293725
91	0xbf97f224	-1.187077
92	0xbf9f4a48	-1.2444544
93	0xbfa10bf0	-1.2581768
94	0xbf9c25f2	-1.219908
95	0xbf9904aa	-1.1954548
96	0xbf9410ec	-1.1567664
97	0xbf8e9b16	-1.1141078
98	0xbf90c1be	-1.1309125
99	0xbf958d16	-1.1683681
100	0xbf6bd8c8	-0.92127657
101	0xbfa295ef	-1.2702006
102	0xbf9e9ee4	-1.239224
103	0xbf9c590f	-1.2214679
104	0xbf9089ef	-1.1292094
105	0x3ee34899	0.44391325
106	0xbf981222	-1.1880534
107	0xbfa30a51	-1.2737523
108	0xbf9b845c	-1.2149768
109	0xbf97e8f0	-1.1867962
110	0xbe4e90a7	-0.20172368
111	0xbfa53228	-1.2905931
112	0xbf9bc472	-1.2169325
113	0xbf8c0427	-1.0938767
114	0xbf694316	-0.9111799
115	0xbf193a6b	-0.59854764
116	0xbfae259d	-1.3605229
117	0xbf2a6d46	-0.6657299
118	0xbf2737a8	-0.653193
119	0xbec00372	-0.3750263
120	0xbfae8759	-1.3635055
121	0xbf9af2bf	-1.210533
122	0x3f9a8879	1.2072898
123	0xbf387b62	-0.7206327
124	0xbf6eeb7a	-0.9332806
125	0x3fa3dd40	1.2801895
126	0xbeb52045	-0.35376182
127	0xbf769aa1	-0.96329695
128	0xbf892f5b	-1.0717577
129	0xbf9504c4	-1.1642079
130	0x3f99b8df	1.2009543
131	0x3f9530f6	1.1655567
132	0x3f936536	1.1515262
133	0xbf922aaa	-1.141927
134	0xbf92b354	-1.1460977
135	0x3f906f6d	1.1284004
136	0x3f901225	1.1255537
137	0x3f8f495a	1.119426
138	0xbf80e727	-1.0070542
139	0xbf86e200	-1.053772
140	0x3f6ba69d	0.92051107
141	0x3f89c93d	1.0764538
142	0xbe940bf8	-0.2891538
143	0xbf647248	-0.8923688
144	0xbf698a40	-0.9122658
145	0xbf2ed33c	-0.6829107
146	0x3e7f812a	0.24951616
147	0x3f5116ba	0.81675303
148	0x3fa9a3c9	1.3253108
149	0x3fa029d8	1.251277
150	0xbe0b745e	-0.1361861
151	0xbf68f7aa	-0.91002905
152	0xbf9e9d81	-1.2391816
153	0xbf9f0c2a	-1.2425587
154	0xbfa3b03a	-1.2788155
155	0xbdfabcfb	-0.122430764
156	0xbfb02ded	-1.3764015
157	0xbfada1b1	-1.3564969
158	0xbfa30b32	-1.2737792
159	0xbf9b4537	-1.2130498
160	0xbf920b0b	-1.140962
161	0xbfa9a4ec	-1.3253455
162	0xbf9ecb1c	-1.2405734
163	0xbfaa8916	-1.3323085
164	0xbfa78b64	-1.3089414
165	0xbf9ffa23	-1.2498211
166	0xbfa6d59f	-1.3033942
167	0xbfaf2a7b	-1.3684839
168	0xbf9ad97b	-1.209762
169	0xbf995f42	-1.1982195
170	0xbf937db7	-1.152274
171	0xbf9bbda1	-1.2167245
172	0xbf9045c9	-1.1271297
173	0xbf8d2d37	-1.1029423
174	0xbf931e15	-1.1493555
175	0xbf5dc020	-0.86621284
176	0xbf945224	-1.1587567
177	0xbf9b0bd4	-1.2112985
178	0x3ecbd432	0.3981033
179	0x3f913495	1.1344172
180	0xbf8615c4	-1.0475392
181	0xbf8ecfe4	-1.1157193
182	0xbf9cd652	-1.2252905
183	0xbf834e45	-1.0258261
184	0x3f8cc2c9	1.0996944
185	0xbf589a79	-0.84610707
186	0xbf9288c3	-1.1447986
187	0xbf9b688b	-1.2141279
188	0xbf890bfe	-1.0706785
189	0x3f8c2e53	1.0951637
190	0x3f5d8e7f	0.86545557
191	0xbf95b519	-1.1695892
192	0xbf9551f1	-1.1665632
193	0xbf941009	-1.1567394
194	0x3f8f029f	1.1172675
195	0x3f8dedb5	1.1088167
196	0xbf8a95ad	-1.0826927
197	0xbf91267b	-1.1339868
198	0xbf92ae54	-1.1459451
199	0x3f8c5448	1.0963221
200	0xbf88de74	-1.0692887
201	0xbf83896e	-1.0276315
202	0xbf8d5006	-1.1040046
203	0xbf7a17a9	-0.9769235
204	0xbf3374d2	-0.7010013
205	0xbf7e9a8e	-0.9945458
206	0xbf831755	-1.0241495
207	0xbf8621ef	-1.0479106
208	0xbf6768ab	-0.90394086
209	0x3f0fcd5c	0.5617273
210	0xbf757a44	-0.9588969
211	0xbf8a48b3	-1.0803436
212	0xbf8bf369	-1.0933658
213	0xbf870ee7	-1.0551423
214	0xbf8e4c28	-1.1116991
215	0x3e9c55af	0.3053412
216	0xbf9beb4c	-1.2181182
217	0xbf9ada2f	-1.2097834
218	0xbf9991f1	-1.1997663
219	0xbf9291d3	-1.1450752
220	0xbf9703b5	-1.1798006
221	0xbfa42026	-1.2822311
222	0xbf9d98be	-1.2312238
223	0xbf4e068e	-0.8047875
224	0x3f692ffa	0.9108883
225	0x3f7a7068	0.9782777
226	0x3f9286e9	1.1447421
227	0x3fab3af5	1.3377367
228	0xbf64c2d0	-0.8935976
229	0xbf8aac97	-1.083392
230	0xbf8f6748	-1.1203394
231	0x3f85172c	1.0397696
232	0x3f9e0680	1.2345734
233	0x3f9c589a	1.2214539
234	0x3f8c7dbf	1.0975875
235	0xbf94057b	-1.1564173
236	0x3fa35c64	1.276257
237	0x3fa030df	1.2514914
238	0x3f98bbf9	1.1932365
239	0xbf9ebee5	-1.2402006
240	0xbf8c2c23	-1.095097
241	0x3f8c96f6	1.098357
242	0x3f9695a3	1.1764416
243	0xbf90bd40	-1.1307755
244	0xbfa8ff00	-1.320282
245	0x3f06d167	0.5266327
246	0x3f1b0615	0.60556155
247	0xbf8eebd7	-1.1165723
248	0xbf9383ad	-1.1524559
249	0xbfb26f2e	-1.3940179
250	0x3f8b1b0d	1.086763
251	0x3f4573be	0.77129734
252	0xbf8b53fc	-1.0885005
253	0xbf88196a	-1.0632756
254	0xbf767f90	-0.96288395
255	0x3f8b012b	1.0859731

feature_extractor.lb_block.conv0.0.bias f4 [8]
0	0xbe0c281e	-0.13687178
1	0xbe01bbfa	-0.12669364
2	0xbf43882b	-0.7637965
3	0x3f141ee8	0.5785966
4	0xbf7cd608	-0.98764086
5	0x3f2976ca	0.6619688
6	0xbf642493	-0.8911831
7	0x3f7ef965	0.99599296

feature_extractor.lb_block.conv0.1.weight f4 [8]
0	0x3ff61ebb	1.9228128
1	0x400d7eab	2.2108562
2	0x3f4692e8	0.7756791
3	0xbd80ab64	-0.0628269
4	0x3f128e9c	0.57248855
5	0x3fe010a2	1.7505076
6	0x3eadad9c	0.33921516
7	0xbebf42fc	-0.37355793

feature_extractor.lb_block.conv0.1.bias f4 [8]
0	0xbe287610	-0.16451287
1	0xbfac2463	-1.3448604
2	0xbf7ada0d	-0.9798897
3	0xbf63124a	-0.8869978
4	0xbe9b1176	-0.3028676
5	0xbf75d592	-0.9602901
6	0xbf8a989e	-1.0827825
7	0xbf8e6667	-1.1125001

feature_extractor.lb_block.conv0.1.running_mean f4 [8]
0	0xbe0e7f05	-0.13915642
1	0xbdf2ca7c	-0.11855027
2	0xbf469fd8	-0.7758765
3	0x3f1347da	0.5753151
4	0xbf80313e	-1.0015028
5	0x3f2b7f3f	0.6699104
6	0xbf628b88	-0.8849416
7	0x3f7c6d00	0.9860382

feature_extractor.lb_block.conv0.1.running_var f4 [8]
0	0x3e33e3da	0.17567387
1	0x3e472013	0.19445829
2	0x3e1df234	0.15424424
3	0x3e730ac5	0.23734577
4	0x3dc7c0e2	0.09753586
5	0x3e746395	0.23866113
6	0x3e1d1baa	0.15342584
7	0x3e2935d8	0.16524446

feature_extractor.lb_block.conv1.0.weight f4 [8, 8, 5, 5]
0	0x3f4afd3c	0.79292655
1	0x3f829adb	1.0203508
2	0x3f95d85c	1.1706653
3	0x3dfd703c	0.12374923
4	0xbf7781c9	-0.9668241
5	0x3f7c0ad4	0.9845402
6	0x3f97fda2	1.1874278
7	0x3f9f7959	1.2458907
8	0x3f9d33f0	1.2281475
9	0xbef241c0	-0.47315788
10	0x3f78867e	0.9708022
11	0x3f8fbc7d	1.1229397
12	0x3fa02743	1.2511982
13	0x3f8b82d3	1.0899299
14	0xbe35d3dd	-0.177566
15	0x3f2b54c4	0.6692622
16	0x3f1dacdb	0.6159188
17	0x3ef3a35c	0.4758557
18	0xbe8043c5	-0.25051704
19	0xbf596ba1	-0.84929854
20	0xbf76aa69	-0.96353775
21	0xbf7f5a1e	-0.9974688
22	0xbf871eca	-1.0556271
23	0xbf88a7ac	-1.0676169
24	0xbf7e2bec	-0.9928577
25	0x3f3839da	0.71963274
26	0x3f605200	0.8762512
27	0x3f89c209	1.076234
28	0xbf366b45	-0.7125743
29	0xbf8a55ac	-1.0807395
30	0x3f2a18bf	0.6644401
31	0x3f84861c	1.0353427
32	0x3f9425b7	1.157401
33	0x3f78d882	0.97205365
34	0xbf7f9256	-0.99832666
35	0x3f1021dc	0.56301665
36	0x3f53a42a	0.8267237
37	0x3f2112c9	0.6291929
38	0xbdecf12e	-0.11569439
39	0xbf74bb78	-0.95598555
40	0xbf41c079	-0.75684315
41	0xbf57adc5	-0.84249526
42	0xbf8dfc12	-1.1092551
43	0xbf8c641c	-1.0968051
44	0xbf91e0e4	-1.1396756
45	0xbf98820a	-1.1914685
46	0xbfa3d479	-1.2799217
47	0xbfa3c3de	-1.2794149
48	0xbfa0a400	-1.2550049
49	0xbf9143a8	-1.1348772
50	0xbf8d013e	-1.1016004
51	0xbf8fcf5a	-1.1235154
52	0xbf9cdff1	-1.2255841
53	0xbf8dd2ea	-1.1079991
54	0xbf95ed8c	-1.1713119
55	0xbf91b549	-1.1383449
56	0xbf81ec5e	-1.0150259
57	0xbf98b833	-1.1931213
58	0xbf96963d	-1.1764599
59	0xbf969455	-1.1764017
60	0xbf87be45	-1.0604941
61	0xbf82c060	-1.0214958
62	0xbf96be9f	-1.1776923
63	0xbf9023bd	-1.1260906
64	0xbf971eaf	-1.1806239
65	0xbf7319b7	-0.9496111
66	0xbf690331	-0.91020495
67	0xbf94c220	-1.1621742
68	0xbf93acfd	-1.1537167
69	0xbf99c42b	-1.2012991
70	0xbf159595	-0.5843137
71	0xbf6a1b5e	-0.9144801
72	0xbf868339	-1.0508796
73	0xbf8e4d66	-1.111737
74	0xbf896a85	-1.0735632
75	0x3f87a9c4	1.0598683
76	0x3f8a474d	1.0803009
77	0x3f9ae4be	1.2101057
78	0xbf671abc	-0.9027517
79	0xbf8b8a17	-1.0901517
80	0x3f96f827	1.179448
81	0x3f9c5b9b	1.2215456
82	0x3f9d805b	1.2304796
83	0xbf47c8d4	-0.78040814
84	0xbf901bec	-1.1258521
85	0x3f982b6a	1.1888249
86	0x3f8ceddb	1.1010088
87	0x3f81203b	1.0087961
88	0xbee22bfd	-0.44174185
89	0xbf89f7de	-1.0778768
90	0x3f769522	0.9632131
91	0x3f5cf94c	0.86317897
92	0x3e9a3914	0.30121672
93	0xbf5589c8	-0.8341336
94	0xbf853ce5	-1.0409209
95	0x3f137ff4	0.57617116
96	0x3e90f024	0.28308213
97	0xbec2055c	-0.37894714
98	0xbf67ad56	-0.90498865
99	0xbf8712e5	-1.0552641
100	0xbf568c74	-0.83808064
101	0xbf88397a	-1.064254
102	0xbf8c5a04	-1.096497
103	0xbf8dc135	-1.1074587
104	0xbf8f4b20	-1.1194801
105	0x3e5909f7	0.21195208
106	0x3e231e79	0.15929593
107	0xbf72ba85	-0.94815856
108	0xbf8fbc8c	-1.1229415
109	0xbf91976a	-1.1374333
110	0x3eff2d79	0.4983938
111	0x3f46ff70	0.77733517
112	0xbf8e8575	-1.1134478
113	0xbf8b6e94	-1.0893121
114	0xbf9021f8	-1.1260366
115	0xbf90fc2a	-1.1326954
116	0xbf9324b4	-1.1495576
117	0xbf92fdb5	-1.1483675
118	0xbf88bf17	-1.0683316
119	0xbf94c556	-1.1622722
120	0xbf8f1d43	-1.1180805
121	0xbf9040b4	-1.1269746
122	0xbf84b737	-1.0368413
123	0xbf813572	-1.0094435
124	0xbf8679f9	-1.0505973
125	0xbf89b7d5	-1.0759226
126	0x3f2f943a	0.6858555
127	0x3f8896cc	1.067102
128	0x3f8cfba6	1.1014297
129	0x3f7c2293	0.98490256
130	0xbf988246	-1.1914756
131	0xbf3253be	-0.6965903
132	0x3f6929ee	0.91079605
133	0x3f8bd6a0	1.0924873
134	0x3edaeb8b	0.4275783
135	0xbf965e06	-1.1747444
136	0xbf4cfc3d	-0.80072385
137	0x3f29e0fb	0.6635892
138	0x3f4ea03f	0.80713266
139	0xbe07182d	-0.13192816
140	0xbf9009cd	-1.1252991
141	0xbf7d86ae	-0.9903363
142	0xbf3d500e	-0.7395028
143	0xbf582a29	-0.8443933
144	0xbf696894	-0.911752
145	0xbf994725	-1.1974837
146	0xbf893674	-1.0719743
147	0xbf7bb47b	-0.98322266
148	0xbf8775d7	-1.0582837
149	0xbf8197b9	-1.0124427
150	0xbf8d5968	-1.104291
151	0xbf80ee56	-1.0072734
152	0xbf833b81	-1.0252534
153	0xbf850897	-1.0393246
154	0xbf87abf9	-1.0599357
155	0xbf7cc9d0	-0.9874544
156	0xbf80dd69	-1.0067569
157	0xbf8571ac	-1.0425315
158	0xbf8bb11d	-1.0913426
159	0xbf7ee368	-0.99565744
160	0xbf34489d	-0.704233
161	0xbf6916c3	-0.91050357
162	0xbf8e5a99	-1.1121398
163	0xbf8edb40	-1.116066
164	0xbf8bcdb2	-1.0922148
165	0xbea5a835	-0.32354894
166	0x3e95780e	0.29193157
167	0xbf83dc13	-1.0301536
168	0xbf8925d0	-1.0714664
169	0xbf9638c5	-1.1736075
170	0xbf908d60	-1.1293144
171	0xbf803ae9	-1.0017978
172	0xbf846235	-1.034247
173	0xbf8a4956	-1.080363
174	0xbf972068	-1.1806765
175	0x3f8664ec	1.0499549
176	0x3f9478fc	1.1599422
177	0x3f936da9	1.1517841
178	0x3f9fc2e1	1.2481347
179	0x3f9d6114	1.2295251
180	0x3f27dfa3	0.6557562
181	0x3f94acdd	1.1615254
182	0x3f97dd9d	1.1864506
183	0x3f9ad0b2	1.2094939
184	0x3fa09a25	1.2547041
185	0xbf812009	-1.0087901
186	0x3f3002ec	0.6875446
187	0x3f8be2e1	1.0928613
188	0x3f900482	1.1251376
189	0x3f6fe4fa	0.93708766
190	0xbf91d747	-1.1393822
191	0xbf7e54c0	-0.9934807
192	0x3e34155e	0.17586276
193	0xbed80eb0	-0.42198706
194	0xbf83e788	-1.0305033
195	0xbf93a11d	-1.1533543
196	0xbf9918ae	-1.1960657
197	0xbf9c6d09	-1.2220775
198	0xbf9ca411	-1.2237569
199	0xbf9a2412	-1.2042258
200	0x3f55377b	0.8328778
201	0x3f99f164	1.2026792
202	0x3f93a7b9	1.153556
203	0x3f84110a	1.03177
204	0xbf8f6def	-1.1205424
205	0x3f5bbe55	0.858373
206	0x3f979d68	1.1844912
207	0x3f9f7a08	1.2459116
208	0x3f978fa3	1.184071
209	0xbf6f9aca	-0.93595564
210	0x3f142711	0.5787211
211	0x3f8f55a8	1.1198015
212	0x3f9708fd	1.1799618
213	0x3fa2922f	1.2700862
214	0xbeaac951	-0.33356717
215	0xbe911af6	-0.28340882
216	0x3f70cb9f	0.940607
217	0x3f85e71b	1.0461153
218	0x3f86ae3d	1.0521923
219	0xbf1ba260	-0.6079464
220	0xbf8eaeb2	-1.1147063
221	0xbf331a42	-0.6996194
222	0x3f1961c3	0.599148
223	0x3f44070f	0.7657327
224	0xbdacf373	-0.08444872
225	0x3f5a9faa	0.8539988
226	0x3f85941e	1.0435827
227	0x3f8d47bc	1.1037517
228	0x3f99a468	1.2003298
229	0x3f630222	0.8867513
230	0x3f28c7d2	0.659299
231	0x3f8ed91c	1.1160007
232	0x3f968848	1.176034
233	0x3f9f397d	1.2439419
234	0x3f2801a7	0.6562752
235	0xbf8b6e03	-1.0892948
236	0x3f8f7402	1.1207278
237	0x3f8a07df	1.0783652
238	0x3f58ecf9	0.8473659
239	0xbf7fa3ad	-0.99859124
240	0xbf993cff	-1.197174
241	0x3ed2d069	0.4117463
242	0x3f2d89c4	0.6778834
243	0xbfa2cef4	-1.2719407
244	0xbf98071e	-1.1877172
245	0xbf8e842e	-1.1134088
246	0xbf9ddf19	-1.2333709
247	0xbfa63df3	-1.2987655
248	0xbfac0da3	-1.3441662
249	0xbf9b9021	-1.215336
250	0xbf915cea	-1.135648
251	0xbf88a6db	-1.067592
252	0xbf8e8ba2	-1.1136363
253	0xbf862acd	-1.0481812
254	0xbf84d5c9	-1.0377742
255	0xbf87f456	-1.062144

feature_extractor.lb_block.conv1.0.bias f4 [8]
0	0x3bf56c06	0.007489684
1	0x3cb3fb07	0.021970285
2	0x3d157dfc	0.0364971
3	0x3d351a8c	0.04421477
4	0x3da9b8dd	0.08287213
5	0x3d69d584	0.05708839
6	0xbdc84c1f	-0.09780144
7	0x3bbff8be	0.00585851

feature_extractor.lb_block.conv1.1.weight f4 [8]
0	0x400e2b0d	2.2213776
1	0x3f329942	0.697651
2	0x3eac90ba	0.33704168
3	0xbe1a53ec	-0.15071076
4	0x3f26fce3	0.65229625
5	0xbd76f0d2	-0.060288258
6	0x3f11092a	0.5665461
7	0xbe31015e	-0.17285678

feature_extractor.lb_block.conv1.1.bias f4 [8]
0	0xbfb69b13	-1.4266075
1	0xbfb4579a	-1.4089234
2	0x3f883656	1.0641582
3	0xbfa704ce	-1.3048341
4	0x3f2e2956	0.68031824
5	0x3f97830f	1.1836871
6	0xbfa93409	-1.3219005
7	0xbfa88c52	-1.3167822

feature_extractor.lb_block.conv1.1.running_mean f4 [8]
0	0xc03e7e95	-2.976476
1	0x4001589a	2.0210328
2	0xc165b587	-14.356818
3	0x41deed5a	27.865894
4	0xc1639b00	-14.225342
5	0xc1cab9b5	-25.340677
6	0x418bce8c	17.475853
7	0x40d19c9a	6.5503664

feature_extractor.lb_block.conv1.1.running_var f4 [8]
0	0x43fa87fb	501.06235
1	0x441fa564	638.5842
2	0x44712a4f	964.6611
3	0x45968ebc	4817.842
4	0x44d4d17c	1702.5464
5	0x4586589e	4299.077
6	0x451a3558	2467.334
7	0x44a12cfb	1289.4056

feature_extractor.lb_block.conv2.0.weight f4 [8, 8, 5, 5]
0	0x3f7a10e2	0.9768201
1	0x3f8c779a	1.0974
2	0x3f86deb5	1.0536715
3	0x3f903ad6	1.1267955
4	0x3f8678fa	1.0505669
5	0x3f71cbc5	0.9445155
6	0x3f84e8c4	1.0383534
7	0x3f8d0e78	1.102004
8	0x3f936fae	1.1518457
9	0x3f94d227	1.1626633
10	0x3f80c437	1.005988
11	0x3f8a2911	1.0793782
12	0x3f8c84ef	1.0978068
13	0x3f95ed7d	1.1713101
14	0x3f92a0bc	1.1455302
15	0x3f7a384c	0.9774215
16	0x3f873ac4	1.0564809
17	0x3f99e150	1.2021885
18	0x3f8cecfc	1.1009822
19	0x3f87a34a	1.0596707
20	0x3f7b5e6f	0.9819097
21	0x3f8c59d8	1.0964918
22	0x3f8a7216	1.0816066
23	0x3f919857	1.1374615
24	0x3f9712d9	1.1802627
25	0x3f9272bf	1.1441268
26	0x3f94da68	1.1629152
27	0x3f8f9b7a	1.1219323
28	0x3f8612a4	1.0474439
29	0x3f759819	0.9593521
30	0x3f8bbea9	1.091756
31	0x3f917d77	1.1366414
32	0x3f899d4f	1.0751132
33	0x3f94f3de	1.1636922
34	0x3f842855	1.0324808
35	0x3f8841ce	1.0645082
36	0x3f96de65	1.178662
37	0x3f916833	1.1359924
38	0x3f90afda	1.1303666
39	0x3f82478a	1.0178082
40	0x3f8b0917	1.0862149
41	0x3f97bd60	1.1854668
42	0x3f8b1ba8	1.0867815
43	0x3f8ecb3e	1.1155775
44	0x3f75f6e7	0.9607987
45	0x3f84db5c	1.0379443
46	0x3f89bb69	1.0760318
47	0x3f93e715	1.1554896
48	0x3f89057d	1.07048
49	0x3f68049b	0.9063203
50	0x3f8f98d1	1.1218511
51	0x3f8d1c32	1.102423
52	0x3f8a798c	1.0818343
53	0x3f8b9365	1.0904356
54	0x3f853a8d	1.0408493
55	0x3f8a9ba1	1.0828744
56	0x3f8e9240	1.1138382
57	0x3f86fdaa	1.0546162
58	0x3f87afc8	1.0600519
59	0x3f8986a1	1.074421
60	0x3f8fb3f4	1.1226792
61	0x3f8bbd50	1.0917149
62	0x3f8a803c	1.0820384
63	0x3f8c435d	1.0958058
64	0x3f971159	1.1802169
65	0x3f8c4998	1.0959959
66	0x3f89bea0	1.0761299
67	0x3f88380a	1.0642102
68	0x3f903649	1.1266567
69	0x3f8a0ada	1.0784562
70	0x3f932dc7	1.1498345
71	0x3f8b7ab6	1.0896823
72	0x3f90a014	1.1298852
73	0x3f864677	1.0490254
74	0x3f8e7e44	1.1132283
75	0x3f85d1a6	1.0454605
76	0x3f8e87ea	1.1135228
77	0x3f8cf3cc	1.1011901
78	0x3f911a2c	1.1336112
79	0xbec45c17	-0.3835151
80	0x3f8aaec5	1.0834585
81	0x3f86fca1	1.0545846
82	0x3f88356f	1.0641307
83	0x3f8bb856	1.091563
84	0xbecbf08d	-0.39831963
85	0x3f50589d	0.81385213
86	0x3f7fdeaa	0.99949133
87	0xbf8ecd15	-1.1156336
88	0x3f84ac9f	1.036518
89	0x3f42fa97	0.7616362
90	0x3f67d8c6	0.90565145
91	0x3f2c21e9	0.6723924
92	0xbfa0224a	-1.2510464
93	0xbf78ff2e	-0.97264373
94	0xbe9d7bfe	-0.3075866
95	0x3f569d1b	0.83833474
96	0x3f765c4a	0.9623457
97	0x3f7328e1	0.9498425
98	0x3ecca3f0	0.39968824
99	0x3ea4b1bd	0.32166854
100	0x3f8feaf8	1.1243582
101	0x3f94d51c	1.1627536
102	0x3f8ac27d	1.0840603
103	0x3f934093	1.1504081
104	0x3f88dc8f	1.0692309
105	0x3f945e3a	1.1591256
106	0x3f98048a	1.1876385
107	0x3f8e3e73	1.1112808
108	0x3f9925bc	1.1964641
109	0x3f8f61ad	1.1201683
110	0x3f890592	1.0704825
111	0x3f906aa4	1.1282544
112	0x3f9841d2	1.1895087
113	0x3f974eb0	1.1820889
114	0x3f933d1b	1.1503023
115	0x3f8dfdef	1.1093119
116	0x3f9c0389	1.2188579
117	0x3f94e86d	1.1633431
118	0x3f9aa6d8	1.2082167
119	0xbf1e23b0	-0.61773205
120	0x3f97ec84	1.1869054
121	0x3f963167	1.1733826
122	0x3f9397ef	1.1530741
123	0x3f89ab47	1.0755395
124	0x3f8e3ab7	1.1111668
125	0xbf834d86	-1.0258033
126	0xbf7bf44d	-0.9841965
127	0x3fa1eba0	1.2650032
128	0x3f96e179	1.1787559
129	0x3f986644	1.1906209
130	0xbf42f1bb	-0.761501
131	0x3f6748e6	0.9034561
132	0x3f7c0381	0.98442847
133	0x3f965c94	1.1747003
134	0x3f93fa72	1.1560805
135	0x3f944b21	1.1585428
136	0x3f9913a1	1.1959115
137	0x3f977d06	1.1835029
138	0x3f901e54	1.1259255
139	0x3f9519ed	1.1648537
140	0x3f8f1cc3	1.1180652
141	0x3f9b8b8f	1.2151965
142	0x3edf7b00	0.4364853
143	0x3f956dcd	1.1674134
144	0x3f8c1fcc	1.0947204
145	0x3f9bdc67	1.2176636
146	0xbf84d865	-1.0378538
147	0xbf833f00	-1.0253601
148	0x3f965be3	1.1746792
149	0x3f977687	1.1833047
150	0xbf947091	-1.1596853
151	0xbf861beb	-1.047727
152	0xbf409092	-0.75220597
153	0x3f925ed5	1.143519
154	0x3f0e0525	0.554766
155	0x3f6d843b	0.9277989
156	0x3f885278	1.0650167
157	0x3f972308	1.1807566
158	0x3f88f9da	1.0701249
159	0x3ea56085	0.323002
160	0x3f5da021	0.8657246
161	0x3f8629ea	1.0481541
162	0x3f8c31fe	1.0952756
163	0x3f8d1777	1.1022786
164	0xbf8b7552	-1.0895178
165	0x3c9f478d	0.019443298
166	0x3f8944fd	1.0724179
167	0x3f9413c9	1.1568538
168	0xbf99f847	-1.2028893
169	0xbf8de139	-1.1084358
170	0x3e5b489c	0.21414417
171	0x3f88d61a	1.0690339
172	0x3f7bdbcd	0.98382264
173	0x3e75c1f9	0.23999776
174	0xbf85338c	-1.0406356
175	0xbf912ab0	-1.1341152
176	0xbf9336e6	-1.1501129
177	0xbf76a340	-0.9634285
178	0x3f83566b	1.0260748
179	0xbf832e0a	-1.0248425
180	0xbf9b8520	-1.2150002
181	0xbf6a6f79	-0.91576344
182	0x3f8ca136	1.0986698
183	0x3f994587	1.1974343
184	0x3f8a1de6	1.0790374
185	0xbe905fc7	-0.28198072
186	0x3f5f39c5	0.87197524
187	0x3f8ee7df	1.1164511
188	0x3f9635b5	1.173514
189	0x3f90feb1	1.1327726
190	0xbf894bd2	-1.0726264
191	0xbf36ae92	-0.71360123
192	0x3f55e80b	0.83557194
193	0x3f8cd167	1.1001405
194	0xbf8cf906	-1.1013496
195	0xbf856c4d	-1.0423676
196	0xbfa3fc13	-1.2811302
197	0x3f001696	0.50034463
198	0x3f859aed	1.0437905
199	0x3f840b94	1.0316033
200	0x3e7206ca	0.23635402
201	0x3f1e5dd1	0.618619
202	0x3f6fda62	0.936926
203	0x3f82673f	1.0187758
204	0x3f852378	1.0401449
205	0xbd5c58f8	-0.053795785
206	0x3f583deb	0.8446948
207	0x3f8cc7ce	1.0998476
208	0x3f8fadf3	1.122496
209	0x3f89c8b3	1.0764374
210	0xbe0ec803	-0.13943486
211	0x3f7cfdbf	0.98824686
212	0x3f91af9c	1.1381717
213	0x3f9f489f	1.2444037
214	0x3f98daec	1.194181
215	0xbd3c5f11	-0.0459891
216	0x3f90c280	1.1309357
217	0x3f929b7c	1.14537
218	0x3f9e8e2b	1.2387136
219	0x3f9c9a5f	1.223461
220	0x3e2b4c4e	0.16728327
221	0x3f8accaa	1.0843709
222	0x3f92ce94	1.1469293
223	0x3f9dabd6	1.2318065
224	0x3f8dc205	1.1074835
225	0x3f646985	0.8922351
226	0x3f8e5f57	1.1122845
227	0x3f8c22a5	1.0948073
228	0x3f79089f	0.9727878
229	0xbe8f6619	-0.28007582
230	0x3f771fd6	0.9653295
231	0x3f8e0c7a	1.1097558
232	0x3f90b18d	1.1304184
233	0x3f8e859a	1.1134522
234	0x3f251d18	0.6449752
235	0x3f6cdb55	0.92522174
236	0x3f95169d	1.1647526
237	0x3f9798e9	1.184354
238	0x3f8b6ede	1.0893209
239	0x3f58dbbe	0.847103
240	0x3f436a0a	0.7633368
241	0x3f9880ba	1.1914284
242	0x3f95ac01	1.1693116
243	0x3f8e3095	1.1108576
244	0x3f4cf595	0.8006223
245	0x3ec49d3c	0.3840121
246	0x3f8d1e47	1.1024865
247	0x3f73dffd	0.95263654
248	0x3f32d0cd	0.69849855
249	0x3e453264	0.19257504
250	0x3f8e8ad0	1.1136112
251	0x3f8a01c6	1.0781791
252	0x3f99a76d	1.2004219
253	0x3f88d57a	1.0690148
254	0x3f87edb3	1.0619415
255	0x3f8f5b82	1.1199801

feature_extractor.lb_block.conv2.0.bias f4 [8]
0	0x3dd950e3	0.10611131
1	0x3c9b2bb9	0.018941747
2	0x3dccb710	0.09995854
3	0xbbcb4942	-0.0062038014
4	0xbba67a1b	-0.005080474
5	0xbd448d10	-0.04798609
6	0x3d953b3b	0.07286688
7	0xbc08ca1b	-0.008348967

feature_extractor.lb_block.conv2.1.weight f4 [8]
0	0x3e8f37f3	0.27972373
1	0x4005503d	2.0830224
2	0xbde6a3fb	-0.112617455
3	0x3ff2606a	1.8935673
4	0x3f1f358e	0.6219109
5	0x3fb23fd0	1.3925724
6	0x3e5b53a8	0.21418631
7	0x40156de1	2.3348315

feature_extractor.lb_block.conv2.1.bias f4 [8]
0	0xbf9a9647	-1.2077111
1	0xbfaf433a	-1.3692391
2	0xbf9b2343	-1.2120136
3	0xbfad58dc	-1.3542743
4	0xbf7256e0	-0.9466381
5	0xbf1fd65d	-0.6243647
6	0xbf959dcb	-1.168878
7	0xbf8e85ff	-1.1134642

feature_extractor.lb_block.conv2.1.running_mean f4 [8]
0	0x42954c32	74.64882
1	0x42871ac4	67.55228
2	0xc19ec5a7	-19.84651
3	0x42606afa	56.10447
4	0xc29a3283	-77.098656
5	0xc2ac0e26	-86.02763
6	0x42aa7f24	85.24832
7	0xc0ff6910	-7.981575

feature_extractor.lb_block.conv2.1.running_var f4 [8]
0	0x4397ce6e	303.61273
1	0x434a72d6	202.44858
2	0x4472fc2f	971.94037
3	0x4365eb9b	229.92033
4	0x4382c0ed	261.50723
5	0x4386d405	269.6564
6	0x438e79be	284.9511
7	0x433ff9a1	191.97511

last_conv.0.weight f4 [1, 24, 5, 5]
0	0x3f8c3784	1.0954442
1	0x3f8c04ed	1.0939003
2	0x3f8b811c	1.0898776
3	0x3f8b44f3	1.0880417
4	0x3f8c6599	1.0968505
5	0x3f8e02ac	1.1094565
6	0x3f8b036d	1.086042
7	0x3f937174	1.1518998
8	0x3f8ce3ee	1.1007059
9	0x3f8c4d77	1.096114
10	0x3f8c47cf	1.0959414
11	0x3f907433	1.1285461
12	0x3f8fc0a5	1.1230665
13	0x3f8adaf2	1.0848067
14	0x3f8bd218	1.092349
15	0x3f88d110	1.0688801
16	0x3f8a3ebc	1.0800395
17	0x3f89b9d2	1.0759833
18	0x3f8c4ef0	1.096159
19	0x3f8c359c	1.095386
20	0x3f90de40	1.1317825
21	0x3f8cdc05	1.1004645
22	0x3f8c07a8	1.0939837
23	0x3f8f8873	1.1213516
24	0x3f897b5c	1.0740771
25	0x3f8d221b	1.1026033
26	0x3f8bffc8	1.0937433
27	0x3f8a20ca	1.0791256
28	0x3f90a9f9	1.1301872
29	0x3f8ab064	1.083508
30	0x3f8acaa1	1.0843087
31	0x3f8e2716	1.1105678
32	0x3f9359eb	1.1511816
33	0x3f8fd8d5	1.1238047
34	0x3f8ff144	1.1245503
35	0x3f8fc126	1.1230819
36	0x3f91d7dd	1.1394001
37	0x3f8efd82	1.1171114
38	0x3f8cf793	1.1013054
39	0x3f8bf1a8	1.0933123
40	0x3f8bae8c	1.0912642
41	0x3f9320fd	1.1494442
42	0x3f9422df	1.1573142
43	0x3f9059e0	1.1277428
44	0x3f8d9dfb	1.1063837
45	0x3f89abee	1.0755594
46	0x3f8f5453	1.1197609
47	0x3f8f0f90	1.1176624
48	0x3f8fac79	1.122451
49	0x3f8d1b5e	1.1023977
50	0x3f8d6d8d	1.1049057
51	0x3f8ab9c7	1.0837945
52	0x3f8ca430	1.0987606
53	0x3f8a334b	1.0796903
54	0x3f900222	1.1250651
55	0x3f90d2da	1.1314347
56	0x3f9288d4	1.1448007
57	0x3f8b62e2	1.0889552
58	0x3f916185	1.1357886
59	0x3f92a35d	1.1456105
60	0x3f8b411f	1.0879248
61	0x3f8bf9b9	1.0935584
62	0x3f8ec001	1.1152345
63	0x3f92500b	1.1430677
64	0x3f9077bf	1.1286544
65	0x3f88283c	1.0637279
66	0x3f8e5685	1.1120154
67	0x3f91fcbb	1.1405252
68	0x3f8abf3b	1.0839609
69	0x3f893255	1.0718485
70	0x3f8edf4b	1.1161894
71	0x3f8b6de7	1.0892915
72	0x3f8e0321	1.1094705
73	0x3f89f3db	1.0777544
74	0x3f8e86bf	1.1134871
75	0x3f87ed76	1.0619342
76	0x3f914805	1.1350104
77	0x3f8cf52e	1.1012323
78	0x3f8dcfe6	1.107907
79	0x3f88d5a0	1.0690193
80	0x3f8aae9b	1.0834535
81	0x3f8e7559	1.1129562
82	0x3f8b6955	1.089152
83	0x3f91cd50	1.1390781
84	0x3f88fae0	1.0701561
85	0x3f86ebe4	1.0540738
86	0x3f90d8bb	1.1316141
87	0x3f9105d1	1.13299
88	0x3f91f924	1.1404157
89	0x3f91b61b	1.1383699
90	0x3f901c25	1.1258589
91	0x3f8a897b	1.0823206
92	0x3f8dd1f3	1.1079696
93	0x3f93de36	1.1552188
94	0x3f9152a0	1.135334
95	0x3f8978f6	1.0740039
96	0x3f8a14b5	1.0787569
97	0x3f8fd983	1.1238254
98	0x3f8fb5af	1.122732
99	0x3f899791	1.0749379
100	0x3f8777e2	1.058346
101	0x3f8eb18a	1.1147931
102	0x3f8f9298	1.1216612
103	0x3f87685e	1.0578725
104	0x3f907a11	1.1287252
105	0x3f88fc1c	1.0701938
106	0x3f90f08d	1.132341
107	0x3f91e6a1	1.1398507
108	0x3f899866	1.0749633
109	0x3f8e284c	1.1106048
110	0x3f9035e4	1.1266446
111	0x3f8db389	1.1070415
112	0x3f8f3524	1.1188092
113	0x3f91d90b	1.1394361
114	0x3f8d9025	1.1059614
115	0x3f8e6a2d	1.1126152
116	0x3f906003	1.12793
117	0x3f920ac2	1.1409533
118	0x3f8ea9ea	1.1145604
119	0x3f8d8f6a	1.1059391
120	0x3f919914	1.1374841
121	0x3f8c4c12	1.0960715
122	0x3f906763	1.1281551
123	0x3f8dfed9	1.1093398
124	0x3f8e5555	1.1119791
125	0x3f8f6695	1.120318
126	0x3f8f3354	1.1187539
127	0x3f8f7415	1.12073
128	0x3f8cff27	1.1015366
129	0x3f90f37e	1.1324308
130	0x3f905746	1.1276634
131	0x3f881db9	1.0634071
132	0x3f8d089a	1.101825
133	0x3f8df966	1.1091735
134	0x3f8e6628	1.1124926
135	0x3f8beaf9	1.0931083
136	0x3f8728eb	1.0559362
137	0x3f877106	1.0581367
138	0x3f8f7c87	1.1209878
139	0x3f874946	1.0569236
140	0x3f8c46fb	1.0959162
141	0x3f86ee56	1.0541484
142	0x3f8a782f	1.0817927
143	0x3f8c37e5	1.0954558
144	0x3f8a79aa	1.0818379
145	0x3f9060b6	1.1279514
146	0x3f91470b	1.1349806
147	0x3f9008e3	1.1252712
148	0x3f87a8d6	1.05984
149	0x3f8e7835	1.1130434
150	0x3f88cc98	1.0687437
151	0x3f8a8334	1.082129
152	0x3f922f2c	1.1420646
153	0x3f8a6c1f	1.0814246
154	0x3f8be846	1.0930259
155	0x3f88a77a	1.067611
156	0x3f8aa08c	1.0830245
157	0x3f8dbb87	1.1072854
158	0x3f8b78d8	1.0896254
159	0x3f890fa4	1.0707898
160	0x3f8c4a6e	1.0960214
161	0x3f8de366	1.1085021
162	0x3f905ac5	1.1277701
163	0x3f90eaea	1.132169
164	0x3f8cf432	1.1012022
165	0x3f8e3ada	1.111171
166	0x3f90052b	1.1251577
167	0x3f8d23e4	1.1026578
168	0x3f926ced	1.1439492
169	0x3f8bef38	1.0932379
170	0x3f879e4d	1.0595185
171	0x3f8d4950	1.1037998
172	0x3f8dbe24	1.1073651
173	0x3f8fd179	1.1235801
174	0x3f8c5a7a	1.0965111
175	0x3f8a9304	1.0826116
176	0x3f8cf479	1.1012107
177	0x3f943a72	1.1580336
178	0x3f8c9b95	1.098498
179	0x3f8eff38	1.1171637
180	0x3f8d7eb0	1.1054287
181	0x3f93b56a	1.1539738
182	0x3f93791f	1.1521338
183	0x3f8ec91b	1.1155123
184	0x3f8f3135	1.1186892
185	0x3f8b0e3c	1.0863719
186	0x3f915846	1.1355064
187	0x3f9248ad	1.1428429
188	0x3f8c8cd1	1.0980474
189	0x3f8a1d95	1.0790278
190	0x3f905988	1.1277323
191	0x3f8c1db4	1.0946565
192	0x3f91dcbb	1.1395487
193	0x3f904e20	1.1273842
194	0x3f8737ef	1.0563945
195	0x3f8ae04c	1.08497
196	0x3f8e4afd	1.1116635
197	0x3f8d942e	1.1060846
198	0x3f8e3c17	1.1112088
199	0x3f8d03d9	1.1016799
200	0x3f919009	1.1372081
201	0x3f8f4b8e	1.1194932
202	0x3f91f085	1.1401526
203	0x3f8bf467	1.0933961
204	0x3f88ebd6	1.0696971
205	0x3f910c92	1.1331961
206	0x3f9051cf	1.1274966
207	0x3f891651	1.0709935
208	0x3f8ef132	1.1167357
209	0x3f920af3	1.1409591
210	0x3f8f5ab3	1.1199554
211	0x3f9328fa	1.149688
212	0x3f8fa9e3	1.122372
213	0x3f8a77be	1.0817792
214	0x3f90f773	1.1325516
215	0x3f90e85e	1.1320913
216	0x3f8c10fa	1.0942681
217	0x3f8e0277	1.1094502
218	0x3f8a4c40	1.080452
219	0x3f8bbe43	1.0917438
220	0x3f89d12b	1.0766958
221	0x3f8cf08d	1.101091
222	0x3f8f2fb8	1.1186438
223	0x3f8a43a1	1.0801889
224	0x3f8a5e78	1.081008
225	0x3f905526	1.1275985
226	0x3f8f2ccf	1.118555
227	0x3f8b338d	1.0875107
228	0x3f8b8b18	1.0901823
229	0x3f88671d	1.0656468
230	0x3f8d6c2a	1.1048634
231	0x3f8c11ee	1.0942972
232	0x3f8c3f1a	1.0956757
233	0x3f8c8974	1.0979447
234	0x3f88856e	1.066572
235	0x3f8f4358	1.1192427
236	0x3f9268db	1.1438249
237	0x3f91a77c	1.1379237
238	0x3f8b209c	1.0869327
239	0x3f8fae59	1.1225082
240	0x3f8f49ba	1.1194375
241	0x3f8bf907	1.0935372
242	0x3f911d56	1.1337078
243	0x3f9085c1	1.1290818
244	0x3f8bbba8	1.0916643
245	0x3f9091a4	1.1294446
246	0x3f8892a3	1.066975
247	0x3f9141ac	1.1348166
248	0x3f8eaba8	1.1146135
249	0x3f8a2f0b	1.0795606
250	0x3f8bd7b2	1.09252
251	0x3f88a2b4	1.0674653
252	0x3f8b23aa	1.0870259
253	0x3f8f4f6f	1.1196116
254	0x3f8e188e	1.1101243
255	0x3f883708	1.0641794

exp_avg f4 [8, 10, 5, 5]
0	0x3f1775e4	0.5916426
1	0x3f541684	0.82846856
2	0x3fd34ce7	1.6507844
3	0x40178bce	2.367908
4	0x3fe998bb	1.8249735
5	0xbedbffe3	-0.42968664
6	0x3e2390e7	0.15973245
7	0x3f7479c3	0.95498294
8	0x403b3255	2.924947
9	0x40482bb9	3.1276686
10	0xbfce89f1	-1.6135846
11	0xbf98e9c7	-1.1946343
12	0x3ea8568d	0.32878533
13	0x403d719d	2.9600594
14	0x407653e7	3.848871
15	0xc017f671	-2.3744166
16	0xc013fab1	-2.312176
17	0x3e8e68ae	0.2781424
18	0x4041da6d	3.0289567
19	0x407880ca	3.8828607
20	0xc009eedc	-2.1552038
21	0xc023dc37	-2.5603158
22	0x3f0099a9	0.50234467
23	0x4039789f	2.8979871
24	0x40477624	3.1165857
25	0xbf1ab93e	-0.6043891
26	0xbf845261	-1.033764
27	0xbfba8399	-1.457141
28	0xbfad8327	-1.355565
29	0xbe126d57	-0.14299522
30	0x3f8bd49e	1.0924261
31	0xbe04217a	-0.12903395
32	0xbf8c3af2	-1.0955489
33	0xbfb32f48	-1.3998804
34	0xbf720dd8	-0.94552374
35	0x3ff14ed0	1.8852177
36	0x3f287f61	0.65819365
37	0xbea3fa34	-0.32026827
38	0xbf2647ec	-0.64953494
39	0xbecea27a	-0.40358335
40	0x3faa7cf5	1.3319384
41	0x3f399617	0.72494644
42	0x3f161db9	0.58639103
43	0x3f61ec52	0.8825122
44	0x3f430856	0.76184595
45	0x3f9d663a	1.2296822
46	0x3ff1db7f	1.889511
47	0x400a9ab1	2.1656916
48	0x3ffa95e5	1.9576994
49	0x3f9e62a0	1.2373848
50	0x3e635569	0.2220055
51	0xbb315ae4	-0.0027062232
52	0xbed4e1d3	-0.4157854
53	0xbecd9141	-0.40149882
54	0xbe986727	-0.297662
55	0x3e5bcbdb	0.21464483
56	0x3da8613b	0.0822167
57	0xbeaa4254	-0.3325373
58	0xbefaf241	-0.4901295
59	0xbeca395d	-0.3949689
60	0x3e5b354a	0.21407047
61	0x3e3b6b2e	0.18302605
62	0xbe757ff3	-0.2397459
63	0xbeeaa81b	-0.4583138
64	0xbea8bce0	-0.329566
65	0x3e56e639	0.2098626
66	0x3e72bf89	0.23705877
67	0xbe21e400	-0.15809631
68	0xbe9ae75b	-0.30254635
69	0xbdcd58b2	-0.10026683
70	0x3e4b97c1	0.19882108
71	0x3e82ee3a	0.25572377
72	0xbd084f7b	-0.033278923
73	0xbd9eb983	-0.07750227
74	0x3e0a83d7	0.13526855
75	0x3f3c6b8e	0.73601615
76	0x3f17e39b	0.59331673
77	0x3ed40260	0.41408062
78	0x3eb44221	0.35206702
79	0x3ec06a64	0.3758117
80	0x3f06d170	0.52663326
81	0x3ed887da	0.42291147
82	0x3ed4333b	0.41445336
83	0x3ef08289	0.4697459
84	0x3f04d7d6	0.5189184
85	0x3eba97ce	0.36443943
86	0x3ea1d3ee	0.31607002
87	0x3e9de7db	0.30840954
88	0x3e9382b1	0.28810647
89	0x3e9e7c99	0.30954435
90	0x3ecd4ac2	0.40096098
91	0x3ecdc592	0.40189797
92	0x3ee3f9d5	0.44526544
93	0x3eeb464c	0.4595207
94	0x3f0e2e8c	0.55539775
95	0x3e775967	0.24155198
96	0x3e986f5b	0.29772457
97	0x3ebfe327	0.3747799
98	0x3ef1c41f	0.4721994
99	0x3f31acfd	0.69404584
100	0x3e13a952	0.1442006
101	0x3e87122b	0.2638105
102	0x3ec43f47	0.38329527
103	0x3eba9a0b	0.3644565
104	0x3e8c134f	0.2735848
105	0x3df3f9d6	0.11912887
106	0x3e6a532d	0.22883292
107	0x3e934cdd	0.2876958
108	0x3e9b2604	0.3030244
109	0x3e7e8b38	0.24857795
110	0x3e3a5370	0.18195891
111	0x3e64d465	0.22346647
112	0x3e6493b9	0.22321977
113	0x3e201f41	0.15636922
114	0x3d92cda4	0.07168129
115	0x3e4bee26	0.19915065
116	0x3e4576d2	0.19283608
117	0x3db90a78	0.090352
118	0x3cae0f20	0.021247447
119	0xbd1c6f65	-0.03819217
120	0x3e6e7059	0.23285045
121	0x3e2b3f64	0.167234
122	0xbc631de2	-0.013862105
123	0xbc8510af	-0.016243307
124	0x3c9409cd	0.01807108
125	0xbf69cee1	-0.913313
126	0xbf16b147	-0.58864254
127	0xbe59975d	-0.21249147
128	0x3f0b6c63	0.5446226
129	0x3f7d7c3a	0.9901768
130	0xbf677515	-0.9041303
131	0xbf72971b	-0.9476182
132	0xbf07a761	-0.52989775
133	0x3e44a467	0.1920334
134	0x3f3ea600	0.74472046
135	0xbf3c3a47	-0.73526424
136	0xbf719424	-0.9436667
137	0xbef0dfe0	-0.47045803
138	0x3cd6101c	0.026130728
139	0x3ef4bd5b	0.47800717
140	0xbe717c76	-0.23582634
141	0xbebdc37a	-0.370632
142	0xbde6135a	-0.1123416
143	0xbd8353b4	-0.064124495
144	0xbaff7d1f	-0.0019492245
145	0x3ebf3c6f	0.37350795
146	0x3e718273	0.23584919
147	0xbdd0dab4	-0.10197964
148	0xbf0be026	-0.546389
149	0xbf3a4c18	-0.7277236
150	0x3c9781fe	0.018494602
151	0x3cd2d8a9	0.025738077
152	0x3d0ec6c6	0.034857534
153	0x3ccb8c5c	0.024847202
154	0x3cc29fa5	0.023757765
155	0x3cb8e0a5	0.022568056
156	0x3d0c89c0	0.034311056
157	0x3d072833	0.03299732
158	0x3ce7758b	0.028254291
159	0x3ce85647	0.028361453
160	0x3cd09c7c	0.025465243
161	0x3d04e0ef	0.032441076
162	0x3cd9c3da	0.026582647
163	0x3cd19677	0.025584443
164	0x3cd0bff4	0.025482155
165	0x3cb3a7d0	0.021930605
166	0x3cd86cc0	0.026419044
167	0x3c8eb922	0.017422263
168	0x3ca23120	0.019798815
169	0x3ca6c0c5	0.020355592
170	0x3c7d1dd0	0.015449002
171	0x3c4c1183	0.012455347
172	0x3c1e0206	0.009644037
173	0x3c8cefa5	0.017204115
174	0x3c3701cf	0.011169865
175	0xbdc011cb	-0.09378394
176	0x3efb1cb2	0.4904533
177	0x3f464782	0.7745286
178	0x3db3916e	0.08767973
179	0xbfb5d34d	-1.4205109
180	0xbcc046f8	-0.02347134
181	0x3f346d6f	0.7047948
182	0x3fb25fe1	1.393551
183	0x3f809a52	1.0047095
184	0xbfa78c06	-1.3089607
185	0xbf08ad45	-0.5338939
186	0x3f7b0abb	0.9806325
187	0x4002d6c0	2.0443573
188	0x3fcc8c7a	1.598037
189	0xbf6483bd	-0.89263517
190	0xbf8f31ed	-1.1187111
191	0x3f9d38c9	1.2282954
192	0x402180a6	2.523477
193	0x3fd3f9fe	1.6560667
194	0xbee52c25	-0.44760242
195	0xbfad2697	-1.3527402
196	0x3f935d44	1.1512837
197	0x401fd3a7	2.4972932
198	0x3fa6f14f	1.3042392
199	0xbe33f35b	-0.17573301
200	0x3f92d007	1.1469735
201	0x3f79c8ba	0.9757191
202	0x3f1eb5e4	0.61996293
203	0x3e828727	0.25493738
204	0xbce7a6f4	-0.028277852
205	0x3f8384ea	1.0274937
206	0x3f5f7892	0.8729335
207	0x3f17352b	0.590655
208	0x3e8b9d07	0.2726824
209	0xbc207b65	-0.009795045
210	0x3df92496	0.12165181
211	0x3ee6f102	0.4510575
212	0x3f5211b7	0.8205828
213	0x3f7ba48a	0.9829794
214	0x3f59bf95	0.85057956
215	0xbe493ba3	-0.19651656
216	0x3f06d4ea	0.5266863
217	0x3f8d2692	1.1027396
218	0x3f943657	1.1579083
219	0x3f3787b6	0.71691453
220	0x3e8ff932	0.28119808
221	0x3f40081f	0.7501239
222	0x3f4ec20d	0.8076485
223	0x3e7c7185	0.2465268
224	0xbf04d802	-0.518921
225	0x3c483b0a	0.012221107
226	0xbd081f4e	-0.03323298
227	0xbd061755	-0.032737095
228	0x3b4a7b2e	0.0030896175
229	0x3c682a90	0.014170304
230	0x3d10f53c	0.035390124
231	0xbbe62d92	-0.0070244754
232	0xbd0dd75d	-0.034629215
233	0xbd1425f2	-0.036169
234	0xbcb89801	-0.022533419
235	0x3d308232	0.043092914
236	0xbc91cf00	-0.0177989
237	0xbd0def42	-0.034652002
238	0xbd2e4324	-0.0425445
239	0x3cb8ad25	0.0225435
240	0x3ca652a8	0.020303085
241	0xbd04adc3	-0.032392275
242	0xbc05d9e6	-0.008169627
243	0x3cac4ccd	0.021032715
244	0x3cdbf9cd	0.026852513
245	0x3c1ca9d9	0.009561979
246	0x3c779e0d	0.015113366
247	0x3cedb671	0.029017659
248	0x3d2c3c9a	0.04204998
249	0x3cef90ca	0.029243845
250	0xc0085013	-2.1298873
251	0x3dc7dce6	0.0975893
252	0x4087ea8f	4.2473826
253	0x407ee00f	3.9824255
254	0x3e82019c	0.25391853
255	0xc018483c	-2.3794088

exp_avg_sq f4 [8, 10, 5, 5]
0	0x3da627ec	0.08113083
1	0x3e8b513e	0.2721042
2	0x3f324e1f	0.69650453
3	0x3f910526	1.1329696
4	0x3f413894	0.75476956
5	0x3d319eb4	0.04336424
6	0x3e712cf5	0.23552306
7	0x3efdc075	0.49560896
8	0x3fefcc84	1.8734288
9	0x40042648	2.0648365
10	0x3eaf80f5	0.34278074
11	0x3e36ba12	0.17844418
12	0x3eac2d9d	0.3362855
13	0x4003b17d	2.057708
14	0x40451421	3.0793536
15	0x3f52b5a7	0.8230843
16	0x3f094f84	0.53636956
17	0x3ecdbbcc	0.4018234
18	0x401aa154	2.4160967
19	0x4054f7d4	3.3276262
20	0x3f40e00b	0.7534186
21	0x3f3ab1f2	0.72927773
22	0x3f1325db	0.5747964
23	0x402a99d8	2.6656399
24	0x4022adc4	2.5418558
25	0x3ec5abb6	0.38607568
26	0x3ec3ac56	0.3821742
27	0x3ec7bbbc	0.39010417
28	0x3e6d0a74	0.23148519
29	0x3d41cc73	0.04731412
30	0x3dc6ea48	0.09712654
31	0x3ce03f6c	0.027373992
32	0x3e48055f	0.19533299
33	0x3e79c67f	0.24392127
34	0x3db73d78	0.08947271
35	0x3f0e17ff	0.55505365
36	0x3da3faba	0.08006807
37	0x3d21809e	0.0394293
38	0x3d7fe958	0.062478393
39	0x3cd20552	0.025637303
40	0x3e98b7b4	0.29827654
41	0x3d89469f	0.06702923
42	0x3d48492d	0.04889791
43	0x3e33b38b	0.17548959
44	0x3e5f0d02	0.21782306
45	0x3ec554ec	0.38541353
46	0x3f297e56	0.662084
47	0x3f4ea0a4	0.8071387
48	0x3f4626d2	0.77402985
49	0x3ef2abdd	0.47396746
50	0x3bce3fe0	0.0062942356
51	0x3accd6e1	0.0015628004
52	0x3d3cbc8e	0.046078257
53	0x3d1980eb	0.03747646
54	0x3c81541f	0.015787182
55	0x3ba22505	0.0049482607
56	0x3abe0afc	0.0014499123
57	0x3d23d54d	0.03999834
58	0x3d820d01	0.063501365
59	0x3cffba33	0.031216716
60	0x3b869aa2	0.004107789
61	0x3b33693b	0.0027375955
62	0x3d109a45	0.035303373
63	0x3d8ff368	0.07028848
64	0x3cdd1d17	0.02699141
65	0x3b4f741d	0.0031654902
66	0x3b6ca474	0.0036108764
67	0x3d0d55f1	0.03450579
68	0x3d5a4bc6	0.05329492
69	0x3c04f716	0.0081155505
70	0x3b21d91c	0.0024696058
71	0x3b7c6e1a	0.0038517774
72	0x3cd3026c	0.02575799
73	0x3cebe77f	0.02879691
74	0x3af5bf8e	0.0018749104
75	0x3da0766f	0.078350894
76	0x3d4b816b	0.04968397
77	0x3cb2ed41	0.021841647
78	0x3c6a50aa	0.014301458
79	0x3c81e725	0.015857289
80	0x3d1ec878	0.0387654
81	0x3cc1ec5e	0.023672279
82	0x3cba041a	0.022707034
83	0x3cedf354	0.029046692
84	0x3d1130d6	0.035446964
85	0x3c9c757f	0.019098995
86	0x3c6a9d05	0.014319663
87	0x3c5431a5	0.012951289
88	0x3c1a7509	0.009427317
89	0x3c224f2f	0.009906574
90	0x3cc5c610	0.024142295
91	0x3cd2437c	0.025666945
92	0x3d038d6e	0.0321173
93	0x3d01fec0	0.03173709
94	0x3d37eb3d	0.044902075
95	0x3bd3783e	0.006453543
96	0x3c480163	0.012207362
97	0x3cb3239d	0.021867568
98	0x3d12ceea	0.03584186
99	0x3da6c750	0.081434846
100	0x3ae6efcc	0.0017619072
101	0x3bf636ed	0.007513872
102	0x3c9d5844	0.019207127
103	0x3c963382	0.018335108
104	0x3c3fdf09	0.011710891
105	0x3a9aa6ee	0.0011799017
106	0x3ba38a9b	0.0049908883
107	0x3c1e8572	0.0096753705
108	0x3c5b93c4	0.013401929
109	0x3c35ad9c	0.011088755
110	0x3b5935d5	0.0033143659
111	0x3ba21da0	0.004947379
112	0x3bb7b5d7	0.005606394
113	0x3b740fee	0.003724094
114	0x3ab92311	0.001412483
115	0x3b9751a6	0.0046178875
116	0x3b827dae	0.0039822673
117	0x3a4117da	0.000736592
118	0x396abca0	0.00022386247
119	0x39a01477	0.00030532826
120	0x3bf6ddd3	0.0075337677
121	0x3b60a4c5	0.0034277898
122	0x39923295	0.00027884977
123	0x398f09b9	0.0002728233
124	0x3a8cbbd4	0.001073713
125	0x3dbee250	0.093205094
126	0x3cbd4837	0.023105724
127	0x3c1cdd9b	0.009574319
128	0x3dc958be	0.09831379
129	0x3e52f32c	0.20600575
130	0x3dcb9c5f	0.09941935
131	0x3dbe5828	0.09294158
132	0x3c99567d	0.018717999
133	0x3cb6ad6a	0.022299487
134	0x3deae267	0.11468964
135	0x3da80cf4	0.082055956
136	0x3e01b791	0.12667681
137	0x3c9200fc	0.017822735
138	0x3bde3f0a	0.006782417
139	0x3d6f62e8	0.058443934
140	0x3c8ace1e	0.016943987
141	0x3cec70df	0.028862415
142	0x3a24a54f	0.00062807364
143	0x3ba834b9	0.005133238
144	0x3bce76b1	0.00630077
145	0x3c555a08	0.013021953
146	0x3bb6043e	0.005554705
147	0x3ab5f7c6	0.0013883046
148	0x3ce7f459	0.028314756
149	0x3d85540d	0.06510172
150	0x37e9932c	2.7844297e-05
151	0x3884bc97	6.329378e-05
152	0x391b5220	0.00014812546
153	0x3891e2aa	6.956358e-05
154	0x3899f902	7.34199e-05
155	0x38224b21	3.869378e-05
156	0x38f58023	0.00011706378
157	0x39040d87	0.0001259354
158	0x38ee44b7	0.000113615235
159	0x3908c97c	0.0001304503
160	0x386d40a2	5.6565397e-05
161	0x38e4b4da	0.000109055734
162	0x38b2c2c7	8.5239815e-05
163	0x38f3916a	0.000116142284
164	0x390b6cf7	0.00013296666
165	0x38604610	5.3471013e-05
166	0x38c1e1dd	9.2450275e-05
167	0x384ebfb9	4.9292783e-05
168	0x38c51357	9.397294e-05
169	0x38e56eb9	0.000109401946
170	0x38191344	3.6495985e-05
171	0x37dc1eb5	2.6240343e-05
172	0x37cde9da	2.45468e-05
173	0x38bb0fe9	8.919818e-05
174	0x383c8a26	4.4951354e-05
175	0x3cd946de	0.02652305
176	0x3d981866	0.07426529
177	0x3dbf65b1	0.09345568
178	0x3c4abe3d	0.012374458
179	0x3e99fc46	0.30075282
180	0x3d82d0d2	0.063874856
181	0x3e0ff760	0.1405921
182	0x3e8f93d8	0.28042483
183	0x3e21ff68	0.15820086
184	0x3e95c16d	0.29249135
185	0x3d0d6424	0.03451933
186	0x3e884951	0.26618436
187	0x3f223d1f	0.63374513
188	0x3ebd14a3	0.36929807
189	0x3e239e6e	0.15978405
190	0x3dd34b9d	0.103171565
191	0x3ee22cc0	0.44174767
192	0x3f89a495	1.0753351
193	0x3ec48b58	0.3838756
194	0x3d82ba47	0.06383186
195	0x3e3445fa	0.17604819
196	0x3eef6ff3	0.46765098
197	0x3f9b8fe9	1.2153293
198	0x3e71191e	0.23544738
199	0x3d177079	0.036972497
200	0x3ea9a508	0.3313372
201	0x3e7c9df9	0.24669637
202	0x3de5d277	0.112217836
203	0x3cf9e579	0.030504929
204	0x3b8ccd64	0.0042969454
205	0x3ea45be5	0.3210136
206	0x3e4c9dd9	0.19982089
207	0x3d983dc3	0.07433655
208	0x3c52a90b	0.012857686
209	0x3b694d12	0.0035598916
210	0x3c7e2f94	0.015514273
211	0x3d1d0635	0.038335998
212	0x3dc6acb1	0.09700907
213	0x3e1277b4	0.14303476
214	0x3df8b8e2	0.121446386
215	0x3b91d81b	0.0044508106
216	0x3d8e1792	0.069380894
217	0x3e5ff641	0.21871282
218	0x3e7218e1	0.23642303
219	0x3dcf70c8	0.10128933
220	0x3db8dfa7	0.09027033
221	0x3e5ddde2	0.21666673
222	0x3e4deeb7	0.20110594
223	0x3cfc7edf	0.030822216
224	0x3d3b8d69	0.045789156
225	0x387becf5	6.0063747e-05
226	0x399a6204	0.00029446196
227	0x3916306a	0.0001432315
228	0x378d96c4	1.6878716e-05
229	0x37861978	1.5985905e-05
230	0x391d37f3	0.0001499353
231	0x379c608e	1.8641611e-05
232	0x391433c8	0.0001413367
233	0x39714e26	0.00023012664
234	0x397ffb4d	0.00024412312
235	0x39971ad8	0.00028820965
236	0x389d7ce4	7.509606e-05
237	0x394960cd	0.00019204915
238	0x39c6c092	0.0003790898
239	0x382ee1b7	4.1695046e-05
240	0x38532180	5.033752e-05
241	0x39a91222	0.00032247702
242	0x38220aff	3.863405e-05
243	0x3887bf56	6.472941e-05
244	0x3893e103	7.051418e-05
245	0x36b8e72e	5.51054e-06
246	0x37249059	9.80877e-06
247	0x388471ed	6.315471e-05
248	0x39623d6d	0.00021575922
249	0x38cb1fb5	9.6857e-05
250	0x3fbdb0eb	1.4819616
251	0x3d963ef8	0.07336229
252	0x403ae6a2	2.9203267
253	0x4034c30b	2.8244045
254	0x3d178fa3	0.037002217
255	0x3fb39db5	1.4032503

exp_avg f4 [8]
0	0xb9cb5af4	-0.00038786943
1	0xb7f94745	-2.97163e-05
2	0xba741eff	-0.000931248
3	0x3a809d0c	0.0009812429
4	0x3a6f5c05	0.00091308384
5	0x3a7ea429	0.0009713793
6	0xba3f3d03	-0.0007295163
7	0xb909daae	-0.00013146803

exp_avg_sq f4 [8]
0	0x322bda16	1.0003097e-08
1	0x301a4dc9	5.6135413e-10
2	0x338936c6	6.389523e-08
3	0x338465d5	6.165252e-08
4	0x35557293	7.951541e-07
5	0x33839831	6.127846e-08
6	0x33aa19df	7.920948e-08
7	0x34aff6a4	3.2775745e-07

exp_avg f4 [8]
0	0x41037941	8.217103
1	0xc024cd25	-2.575021
2	0x3f915b14	1.135592
3	0x4091994a	4.549962
4	0xc0e3d579	-7.1198087
5	0xc1572259	-13.445886
6	0xc0268dd9	-2.6024077
7	0x40854607	4.1647983

exp_avg_sq f4 [8]
0	0x4021f7da	2.5307527
1	0x3f8781f3	1.0586532
2	0x3f0fa280	0.5610733
3	0x403ff7fc	2.9995108
4	0x40c3d15e	6.1193075
5	0x415c7df3	13.780749
6	0x3ea5e9a9	0.3240483
7	0x4017889f	2.3677137

exp_avg f4 [8]
0	0x40aed6a7	5.4637027
1	0x408b7600	4.3581543
2	0x4057ac7b	3.3699024
3	0x40121d49	2.2830374
4	0xc0756af2	-3.8346524
5	0x3ffcc756	1.9748333
6	0x3f5999fb	0.8500058
7	0x4059004f	3.3906438

exp_avg_sq f4 [8]
0	0x4015044b	2.328387
1	0x40407a35	3.007459
2	0x400ccac2	2.1998754
3	0x3f4b2c76	0.79364717
4	0x3fc97970	1.5740185
5	0x3f4a0732	0.7891723
6	0x3ed277ee	0.41107124
7	0x4006cc20	2.1062088

exp_avg f4 [8, 8, 5, 5]
0	0x40415e66	3.0213866
1	0x3e94a1b5	0.29029623
2	0xbfb2edf4	-1.3978868
3	0xbf19e379	-0.6011272
4	0x3fd08886	1.6291664
5	0x401ffe05	2.4998791
6	0xbdd0140f	-0.10160076
7	0xbfeb86c5	-1.8400503
8	0xbf870869	-1.0549442
9	0x3f93372f	1.1501216
10	0x40413cc8	3.0193348
11	0x3f88fc9a	1.0702088
12	0xbf8110a4	-1.0083203
13	0xbf677984	-0.90419793
14	0x3f4f8c79	0.8107372
15	0x408166ae	4.043784
16	0x404f58ed	3.2398026
17	0x3f9b8474	1.2149796
18	0x3e56726a	0.20942083
19	0x3f81e84e	1.0149019
20	0x40a7e267	5.246387
21	0x40a463ab	5.1371665
22	0x4051353c	3.2688742
23	0x3fb8ada0	1.4427986
24	0x3f831c79	1.0243064
25	0x40a2fcbd	5.093352
26	0x40578b80	3.3678894
27	0x3f0d9df7	0.5531916
28	0x3e2d4fe4	0.16925007
29	0x40090a2d	2.141246
30	0x40a52c4c	5.1616573
31	0x4033dcc7	2.8103502
32	0x3e4734ff	0.1945381
33	0xbe7a405e	-0.24438617
34	0x3fcf0f21	1.6176492
35	0x409942cd	4.7894044
36	0x40606e73	3.5067413
37	0x3fe537b5	1.7907625
38	0x3f5bc317	0.8584456
39	0x3fbcd800	1.4753418
40	0x40a7b79f	5.2411647
41	0x40aa6020	5.324234
42	0x408c9ebb	4.3943763
43	0x40366ec0	2.8505096
44	0x3fdc3beb	1.7205786
45	0x40bc0f35	5.8768563
46	0x40dc10c0	6.8770447
47	0x40c96e70	6.294731
48	0x408fcaa5	4.493487
49	0x401b0186	2.421968
50	0x3f7ff1b0	0.9997816
51	0x3f68466d	0.9073246
52	0x3fa56198	1.2920408
53	0x3fc9c9e2	1.5764735
54	0x3fa65153	1.2993568
55	0x3f47c159	0.780294
56	0x3f1ee9ac	0.62075305
57	0x3f71eedc	0.94505095
58	0x3faf7132	1.370642
59	0x3fbb530c	1.4634719
60	0x3f13cff0	0.5773916
61	0x3ecdb562	0.40177447
62	0x3f5c6cba	0.86103404
63	0x3f9cf913	1.2263511
64	0x3fa7a00a	1.3095715
65	0x3ecf0eed	0.40441075
66	0x3eb53817	0.35394356
67	0x3f35e7b4	0.71056676
68	0x3f85e843	1.0461506
69	0x3f8ea5cc	1.1144347
70	0x3d92f04e	0.07174741
71	0x3e4b671a	0.19863549
72	0x3f09a898	0.5377288
73	0x3f6c9e08	0.92428637
74	0x3f589c28	0.84613276
75	0xbf8c9767	-1.0983704
76	0xbfb7ccbf	-1.4359359
77	0xbf4efc79	-0.8085399
78	0x3e8ff984	0.28120053
79	0x3f92e2d2	1.147547
80	0xbf952e2a	-1.1654713
81	0xbfdb9ab2	-1.7156584
82	0xbf5b78ba	-0.8573109
83	0x3e0fb086	0.14032182
84	0x3f3a6a35	0.7281831
85	0xbf800902	-1.0002749
86	0xbfa8336a	-1.314069
87	0xbf16ba69	-0.5887819
88	0x3e5ab977	0.21359812
89	0x3f3d36b2	0.73911583
90	0xbe973b3e	-0.29537386
91	0xbe8af1a0	-0.2713747
92	0x3dd93b00	0.106069565
93	0x3f15c69b	0.5850617
94	0x3f8b902a	1.090337
95	0xbe09afde	-0.13445994
96	0x3dc6e64d	0.09711895
97	0x3ee1fb1d	0.44136897
98	0x3f55e0dc	0.83546233
99	0x3fbce46f	1.4757212
100	0x3e833bcd	0.25631562
101	0x3f17c211	0.59280497
102	0x3f45636d	0.77104837
103	0x3ed93c21	0.42428687
104	0x3e99ad0a	0.3001483
105	0x3c9a9c1a	0.018873263
106	0x3cd29586	0.025706064
107	0x3e878ee0	0.26476192
108	0x3edbc11f	0.42920777
109	0x3f1a2f59	0.60228497
110	0x3b6ab4bd	0.0035813295
111	0xbd4485a9	-0.04797903
112	0x3ebd7c4a	0.37008888
113	0x3f2981e1	0.66213804
114	0x3f6bfc10	0.9218149
115	0x3e8360cd	0.2565979
116	0x3e1ae739	0.15127267
117	0x3f0836c1	0.5320855
118	0x3f61590b	0.88026494
119	0x3f941216	1.1568019
120	0x3ee4306c	0.44568193
121	0x3eaabe3e	0.33348268
122	0x3f2b75a9	0.6697641
123	0x3f4b2a75	0.7936166
124	0x3f6c03d1	0.92193323
125	0x400194fc	2.0247183
126	0x3fdcac29	1.7240039
127	0x3f364a28	0.71206903
128	0xbe88649c	-0.2663926
129	0xbe1d82e0	-0.15381956
130	0x4040d985	3.0132763
131	0x403d8b0b	2.9616115
132	0x3fcac042	1.5839922
133	0x3d1dc5f1	0.03851885
134	0x3def9a94	0.11699405
135	0x4051f1be	3.2803798
136	0x40598b92	3.3991437
137	0x4013cf6e	2.3095355
138	0x3f3b23ef	0.73101705
139	0x3ed58a5e	0.41707128
140	0x404dbc70	3.2146263
141	0x40795063	3.8955314
142	0x405dbc39	3.4646132
143	0x400fe421	2.248299
144	0x3fabd374	1.3423905
145	0x402df077	2.7178018
146	0x4079ab03	3.9010627
147	0x4087fdaa	4.249715
148	0x406de6a7	3.717203
149	0x401c0a17	2.4381158
150	0x3f41c6d1	0.75693995
151	0x3f2e966d	0.6819828
152	0x3f6a1f30	0.9145384
153	0x3f5ef747	0.87096065
154	0x3effbe9c	0.4995011
155	0x3eae4f3d	0.3404483
156	0x3ec8cf8b	0.39220843
157	0x3f3c9bb9	0.73675114
158	0x3f4f07d5	0.80871326
159	0x3f04bb33	0.51848143
160	0x3e0f5070	0.13995528
161	0x3e5dc66e	0.21657726
162	0x3f50a26f	0.81497854
163	0x3f88ba63	1.0681881
164	0x3f5966b7	0.84922355
165	0x3d4156df	0.047201987
166	0xbceae05a	-0.028671432
167	0x3f2021c4	0.6255152
168	0x3f83326e	1.0249765
169	0x3f61e6be	0.8824271
170	0x3f346d0c	0.7047889
171	0x3f03513d	0.51295835
172	0x3f5c6789	0.8609548
173	0x3f8ef303	1.1167911
174	0x3f6e6e7e	0.9313735
175	0xbef37379	-0.47549036
176	0xbf6e58ca	-0.9310423
177	0xbfa8766e	-1.3161142
178	0xbfa65469	-1.299451
179	0xbfb6f5d8	-1.4293776
180	0xbd8ba4f1	-0.068185695
181	0xbf1d49b3	-0.6144058
182	0xbf91fa74	-1.1404557
183	0xbfb2fe6f	-1.3983897
184	0xbfaae8de	-1.3352315
185	0x3ef384ef	0.47562358
186	0xbded2647	-0.115795664
187	0xbf000d8b	-0.50020665
188	0xbf2e4766	-0.68077695
189	0xbeabb968	-0.3353989
190	0x3f320603	0.69540423
191	0x3e257781	0.16158868
192	0xbc325673	-0.010884869
193	0x3d800beb	0.06252273
194	0x3ecc715f	0.39930245
195	0x3ef8a97a	0.485668
196	0x3e99363c	0.2992419
197	0x3ec820bd	0.39087477
198	0x3f51f006	0.8200687
199	0x3f5da3ac	0.8657787
200	0x3e8c9362	0.27456194
201	0xbfc39f03	-1.5282902
202	0xbffb8a85	-1.9651648
203	0xbf54517f	-0.82936853
204	0x3f41b762	0.75670445
205	0x3f0577c3	0.52135867
206	0xbf8b74bf	-1.0895003
207	0xbfe4cecf	-1.7875613
208	0xbf9fbd0b	-1.2479566
209	0x3e9e7446	0.30948085
210	0x3f656392	0.8960506
211	0xbf05be82	-0.52243817
212	0xbfdeaf2c	-1.7397208
213	0xbfc6c89c	-1.5529971
214	0xbe6042b4	-0.21900445
215	0x3fa0c1fe	1.2559202
216	0x3f40f459	0.75372845
217	0xbdb598e0	-0.08867049
218	0xbef7f29e	-0.4842729
219	0x3e11c482	0.14235118
220	0x3fdd79c2	1.7302783
221	0x3ffbfaa0	1.968586
222	0x3fa501c3	1.2891163
223	0x3ee7875d	0.4522046
224	0x3f0352ea	0.5129839
225	0x3f081c26	0.5316795
226	0xbe8ba0e6	-0.27271193
227	0xbf86b248	-1.0523157
228	0xbf8d2489	-1.1026775
229	0xbdcb2049	-0.09918267
230	0x3f8c1707	1.0944527
231	0xbe07fbbf	-0.13279627
232	0xbf956fd1	-1.1674749
233	0xbfb50860	-1.4143181
234	0xbdd45883	-0.10368445
235	0x3fd84473	1.6895889
236	0x3f275192	0.6535884
237	0xbc4f62ed	-0.012657863
238	0x3cf8bab2	0.03036246
239	0x3f440b5d	0.7657984
240	0x400666be	2.100021
241	0x3fcc4831	1.5959531
242	0x3fad942b	1.3560842
243	0x3fdd3e7d	1.7284695
244	0x400092ac	2.0089521
245	0x40000d3b	2.0008075
246	0x401f43d5	2.4885151
247	0x4029e9f6	2.6549048
248	0x405103c9	3.265856
249	0x4068bbdb	3.6364658
250	0x3f62acbc	0.8854482
251	0x3f61e5ee	0.8824147
252	0x3f5d8c9d	0.86542684
253	0x3f4c4acf	0.7980165
254	0x3f703655	0.93832904
255	0x3f4b1193	0.7932369
