weights/checkpoints/OriNet.pth (torch_old, 323258 bytes, 20 tensors)

features.0.weight f4 [16, 1, 3, 3]
0.45545676 -0.20591529 0.050739363 0.30861318 0.0005394473 -0.10118831 -0.06153059 0.16940875
-0.07966301 -0.14125024 0.15705992 -0.1220989 -0.023621256 0.14402804 0.009833969 -3.4440377e-06
0.035008613 -0.23206922 0.21794844 0.106977165 -0.16250822 0.33605054 0.25810245 0.03646496
0.08753103 0.25252953 -0.2113384 0.2880395 0.022050431 0.25421774 0.09464345 -0.09435411
0.11521663 0.0049272976 -0.050333444 0.35815814 0.12546273 -0.1257156 -0.55046606 -0.25364268
-0.012498627 0.025195891 0.069119126 0.016582545 -0.1950863 -0.08987165 -0.012521539 0.08610303
-0.052064992 -0.14235795 -0.40430525 0.5471094 0.21795483 0.22949067 0.2540076 0.25917685
0.3476506 -0.22969794 -0.117466144 0.014365312 0.0003387693 0.08168118 -0.23480241 -0.070505396
0.44979107 -0.095352374 0.12881297 -0.32164052 0.07750911 0.05945818 0.21400039 -0.056932848
-0.17570958 0.15818694 -0.2686524 0.25565732 -0.113422744 0.09568367 -0.06444696 -0.3825823
0.1576095 0.059782475 0.08106903 -0.042424336 -0.14507847 0.33278373 -0.17064837 0.002766254
0.28402707 0.15431473 -0.11928601 -0.16229334 0.15938137 0.38296255 0.07050556 0.18257116
0.43447798 -0.17405108 -0.2825997 -0.048904162 0.33399826 0.11444758 0.030961718 0.1246258
-0.38603598 -0.27590534 -0.1394606 -0.24640085 -0.091984205 0.22416443 -0.004662622 0.2115439
0.35088515 0.06632859 -0.0057857158 0.1304511 0.2625732 -0.43115768 -0.25914276 0.15303184
0.084976315 0.09702231 -0.03256185 -0.31465358 0.12741385 -0.012636704 -0.08927038 0.038974024
0.03976408 0.08901917 -0.2994482 0.26546496 -0.11203512 0.50175893 0.0105188275 0.010980234
0.1436138 0.12107516 -0.24023719 0.29227778 0.44379914 0.20909716 0.008001884 0.03511627
00000000: a131 e93e 75db 52be 14d4 4f3d 8c02 9e3e
00000010: b269 0d3a d13b cfbd 8007 7cbd 7d79 2d3e
00000020: 5c26 a3bd e7a3 10be 51d4 203e fd0e fabd
00000030: 5d81 c1bc 167c 133e a81e 213c 1e20 67b6
00000040: 3165 0f3d 8ea3 6dbe e02d 5f3e d816 db3d
00000050: 8e68 26be d10e ac3e 0126 843e 485c 153d
00000060: 7843 b33d 8d4b 813e 1869 58be ea79 933e
00000070: 1ba3 b43c d428 823e 6dd4 c13d ba3c c1bd
00000080: b2f6 eb3d 2b75 a13b 712a 4ebd 8160 b73e
00000090: 4d79 003e 97bb 00be 58eb 0cbf 74dd 81be
000000a0: 0bc7 4cbc 9d67 ce3c 548e 8d3d 1ed8 873c
000000b0: b4c4 47be a10e b8bd 2427 4dbc c956 b03d
000000c0: 1a42 55bd 48c6 11be 1901 cfbe 5d0f 0c3f
000000d0: 8d2f 5f3e 9aff 6a3e 490d 823e d4b2 843e
000000e0: 42ff b13e f035 6bbe 1792 f0bd 7c5c 6b3c
000000f0: d99c b139 7648 a73d 0b70 70be 2265 90bd
00000100: 044b e63e 1b48 c3bd 8ce7 033e 11ae a4be
00000110: 19bd 9e3d 6c8a 733d eb22 5b3e 6b32 69bd
00000120: 36ed 33be c2fb 213e cf8c 89be 84e5 823e
00000130: 2f4a e8bd cdf5 c33d c5fc 83bd d4e1 c3be
00000140: 6364 213e 78de 743d 8507 a63d 24c5 2dbd
00000150: 738f 14be a162 aa3e 72be 2ebe 0a4a 353b
00000160: ff6b 913e ae04 1e3e 394c f4bd 3a30 26be
00000170: df34 233e ab13 c43e 3865 903d eff3 3a3e
00000180: e673 de3e 723a 32be e8b0 90be bb4f 48bd
00000190: d201 ab3e 7e63 ea3d 6ea3 fd3c d03b ff3d
000001a0: 82a6 c5be 7743 8dbe c2ce 0ebe 8150 7cbe
000001b0: 3762 bcbd 5c8b 653e e9c8 98bb f79e 583e
000001c0: 38a7 b33e 49d7 873d 1a96 bdbb f994 053e
000001d0: ff6f 863e b3c0 dcbe 5cae 84be 61b4 1c3e
000001e0: 1008 ae3d a2b3 c63d 935f 05bd 461a a1be
000001f0: c778 023e 2e0a 4fbc 64d3 b6bd 3aa3 1f3d
00000200: a9df 223d af4f b63d 4651 99be 06eb 873e
00000210: ab72 e5bd 4673 003f 2957 2c3c 70e6 333c
00000220: 7f0f 133e 41f6 f73d bd00 76be 6fa5 953e
00000230: a439 e33e 911d 563e 561a 033c 14d6 0f3d

features.1.running_mean f4 [16]
-0.0019186762 -0.0007326152 -0.00022913539 -0.0016784003 0.003069993 0.0075591016 -0.007224023 -0.00042811947
-0.00026586858 0.0026571457 0.0006189276 -0.0078270845 0.0019777522 0.0024379445 0.0031850913 -5.625313e-05
00000000: 177c fbba f90c 40ba 1044 70b9 c5fd dbba
00000010: f031 493b 57b2 f73b 7fb7 ecbb 3975 e0b9
00000020: 4764 8bb9 8223 2e3b 873f 223a 2c3d 00bc
00000030: 2d9d 013b ecc5 1f3b f7bc 503b 57f1 6bb8

features.1.running_var f4 [16]
0.29172602 0.024853297 0.8394843 0.7540682 0.6885237 0.21136975 0.19322987 0.12567861
0.09717831 0.2937614 0.26015747 0.28474823 1.1476 0.31189814 0.19240569 0.92114747
00000000: 1d5d 953e 2499 cb3c 71e8 563f 9d0a 413f
00000010: 1743 303f 5071 583e 0dde 453e e5b1 003e
00000020: 6c05 c73d e567 963e 5c33 853e 85ca 913e
00000030: 8fe4 923f 1db1 9f3e ff05 453e 52d0 6b3f

features.3.weight f4 [16, 16, 3, 3]
0.08689595 0.053991716 0.07248566 0.024188988 0.01424983 0.009827478 0.015595414 0.09656485
0.036054596 0.05372359 -0.017812118 0.0018345327 -0.007828004 -0.00013120995 -0.020457916 0.14900914
-0.14546072 0.2001946 -0.11971375 -0.010604022 0.0053311433 -0.03262787 -0.022404198 0.13086544
0.022713086 0.07017161 -0.14145052 -0.090447 0.024554871 -0.0035631782 -0.049802355 0.012600103
0.009741888 0.029496444 0.0075147077 -0.012056149 0.02620428 -0.0492832 0.022533724 -0.005507017
0.024935847 -0.012648917 -0.057207827 -0.04907598 -0.10388713 0.062281184 0.0043997043 0.03193208
0.07317111 0.20539677 -0.14735837 -0.06936819 -0.10470125 -0.06350773 -0.0029389292 -0.009697589
0.08046077 0.0012280379 0.023028102 -0.0288637 -0.033465497 -0.007671071 0.087926656 -0.0220617
-0.024817083 -0.018278254 -0.081246495 -0.010128929 0.06583819 -0.051759634 -0.09254037 -0.08250982
0.03300895 -0.037216477 0.092340715 -0.16725504 0.10052888 -0.063131474 -0.0060412 0.038026027
0.047470853 -0.039409027 -0.064763084 -0.016565973 -0.09613211 0.007531369 0.03162392 0.012900726
0.1357494 0.0053862347 -0.07153528 -0.050512213 0.0019617267 -0.14754 -0.037120286 0.079657905
0.0127942385 0.014061988 -0.08035695 -0.07804885 -0.051242422 -0.016407242 0.096569866 -0.044027835
0.12432902 0.054574374 0.033301678 -0.051412042 -0.07193049 0.05577777 0.0001382202 0.05210594
-0.094006576 -0.044701736 0.058155537 0.047444597 -0.1113629 0.12048232 0.06497602 0.11432819
-0.01504688 0.095907904 -0.033328135 0.012845073 0.033809803 -0.0068109003 -0.017243018 -0.073649906
-0.08328987 0.04646619 0.04019393 -0.1011872 -0.048920415 0.0147845745 0.014153126 -0.15175398
-0.008966075 -0.037546918 -0.1296651 0.12931506 0.0037708667 -0.056260385 -0.012520527 -0.048314013
-0.05931947 -0.016330838 0.005710934 -0.03302582 -0.006395683 -0.010188695 -0.09589211 -0.0057865228
-0.063020796 -0.08712707 -0.03894154 0.09861445 -0.100748636 0.06377613 0.09367156 -0.05880566
-0.088859655 -0.0311227 0.14040087 -0.0009750877 -0.08067352 -0.061774235 0.06896302 -0.048678745
0.02305688 0.08062771 -0.14070547 -0.06031995 -0.05403824 -0.14020604 -0.054364618 -0.03317683
0.01243766 -0.013803918 -0.09302536 0.07005368 -0.1171442 -0.023753028 -0.08731374 -0.15310772
0.11764037 -0.014004388 -0.041127976 0.10215801 0.026188292 0.12426828 -0.06208036 0.009648092
-0.047638696 -0.05375415 -0.0106051 -0.07420477 0.0008549859 -0.058851805 0.073792785 -0.112370476
0.035938863 0.027740654 0.02793593 0.100453414 0.1123258 0.123177715 -0.046355154 0.059752107
0.020492492 0.032685146 0.07620302 -0.044758685 -0.13670993 -0.0056141666 -0.10941751 -0.02542031
-0.003930224 0.104886085 -0.010049119 -0.045555122 0.0014291909 0.0004124696 -0.10516512 0.031256475
0.010035554 -0.022133384 -0.020220004 0.029901555 -0.08913323 0.07285728 -0.038363863 -0.08766528
0.024006894 -0.02753715 0.03526727 0.08556091 -0.1755624 -0.03158539 -0.07084141 0.020822542
0.11293807 0.025392657 -0.027020171 -0.0008166122 -0.030547388 -0.069660194 -0.053067576 0.042092483
-0.1730741 0.08820104 0.06908103 0.02303609 -0.011498861 0.027388634 -0.016198942 0.018647756
00000000: 81f6 b13d 6b26 5d3d 5d73 943d fc27 c63c
00000010: 1e78 693c 6e03 213c e883 7f3c cbc3 c53d
00000020: fcad 133d 440d 5c3d b8ea 91bc b474 f03a
00000030: 0741 00bc 6795 09b9 5c97 a7bc da95 183e
00000040: a8f3 14be d0ff 4c3e 7c2c f5bd 7ebc 2dbc
00000050: dfb0 ae3b cda4 05bd 0289 b7bc 9701 063e
00000060: cb10 ba3c 22b6 8f3d 68d8 10be 473c b9bd
00000070: 4c27 c93c 3684 69bb 8efd 4bbd aa70 4e3c
00000080: 719c 1f3c 87a2 f13c f03d f63b 2787 45bc
00000090: 5caa d63c 2edd 49bd a598 b83c 3574 b4bb
000000a0: 4346 cc3c 673d 4fbc c152 6abd e503 49bd
000000b0: c7c2 d4bd 8e1a 7f3d 652b 903b 36cb 023d
000000c0: bcda 953d 8853 523e 1de5 16be e910 8ebd
000000d0: 9c6d d6bd 5710 82bd 0d9b 40bb a3e2 1ebc
000000e0: 9ec8 a43d 1df6 a03a 6ea5 bc3c 9173 ecbc
000000f0: 1e13 09bd 9c5d fbbb e412 b43d bdba b4bc
00000100: 324d cbbc 47bc 95bc 9064 a6bd cff3 25bc
00000110: 2cd6 863d e901 54bd ce85 bdbd e9fa a8bd
00000120: 6534 073d 4e70 18bd 211d bd3d e844 2bbe
00000130: 16e2 cd3d 134b 81bd 42f5 c5bb 2ec1 1b3d
00000140: cc70 423d 5c6b 21bd 82a2 84bd 5db5 87bc
00000150: e9e0 c4bd b4c9 f63b 1588 013d 915d 533c
00000160: e401 0b3e 037f b03b 1781 92bd e5e5 4ebd
00000170: 5090 003b ba14 17be 710b 18bd af23 a33d
00000180: ed9e 513c 4164 663c 2f92 a4bd 13d8 9fbd
00000190: 93e3 51bd 7b68 86bc 6cc6 c53d 8856 34bd
000001a0: 37a0 fe3d 6189 5f3d 5767 083d 6f95 52bd
000001b0: 4b50 93bd 3b77 643d 34ef 1039 0a6d 553d
000001c0: 8586 c0bd 2b19 37bd 8034 6e3d 4455 423d
000001d0: 3b12 e4bd 6fbf f63d 2612 853d e624 ea3d
000001e0: 3087 76bc 5d6b c43d 1583 08bd 2474 523c
000001f0: 267c 0a3d f92d dfbb 3b41 8dbc c3d5 96bd
00000200: e193 aabd 5553 3e3d 64a2 243d 3c3b cfbd
00000210: c660 48bd 003b 723c 83e2 673c 6565 1bbe
00000220: 72e6 12bc ccca 19bd eec6 04be 2b6b 043e
00000230: a520 773b 4a71 66bd e522 4dbc eae4 45bd
00000240: f9f8 72bd 40c8 85bc c922 bb3b 1546 07bd
00000250: e192 d1bb 7cee 26bc 1563 c4bd df9c bdbb
00000260: 0c11 81bd ad6f b2bd 2a81 1fbd 5ff6 c93d
00000270: 4d55 cebd 0f9d 823d e0d6 bf3d 34de 70bd
00000280: 0dfc b5bd 08f5 febc 3fc5 0f3e 079d 7fba
00000290: 2938 a5bd fb06 7dbd 7c3c 8d3d 5d63 47bd
000002a0: c8e1 bc3c 2420 a53d 1815 10be 0d12 77bd
000002b0: 3457 5dbd 2c92 0fbe 6fad 5ebd 6de4 07bd
000002c0: 54c7 4b3c d429 62bc 1484 bebd 4e78 8f3d
000002d0: 4ce9 efbd b695 c2bc 8cd1 b2bd 45c8 1cbe
000002e0: 6fed f03d a972 65bc cf75 28bd 3838 d13d
000002f0: d488 d63c 5e80 fe3d fa47 7ebd 0813 1e3c
00000300: cb20 43bd 502d 5cbd 03c1 2dbc acf8 97bd
00000310: 2221 603a 970e 71bd ac20 973d 7e22 e6bd
00000320: a134 133d 5e40 e33c e4d9 e43c 85ba cd3d
00000330: 120b e63d 9944 fc3d e7de 3dbd a0be 743d
00000340: dfdf a73c dce0 053d 5410 9c3d e254 37bd
00000350: b0fd 0bbe 0bf7 b7bb 4a16 e0bd 413e d0bc
00000360: 1cc9 80bb 84ce d63d 0fa5 24bc 0298 3abd
00000370: b053 bb3a bc40 d839 cf60 d7bd ca06 003d
00000380: 2a6c 243c 1251 b5bc 6ca4 a5bc 1bf4 f43c
00000390: 7c8b b6bd 3336 953d 6d23 1dbd db89 b3bd
000003a0: 1baa c43c 9795 e1bc 6a74 103d 8f3a af3d
000003b0: a1c6 33be af5f 01bd 4d15 91bd 0994 aa3c
000003c0: 134c e73d 4304 d03c 6859 ddbc eb11 56ba
000003d0: 843e fabc 01aa 8ebd 635d 59bd 2b69 2c3d
000003e0: 563a 31be bfa2 b43d 5b7a 8d3d 2fb6 bc3c
000003f0: b865 3cbc 215e e03c a5b3 84bc 2ec3 983c

features.4.running_mean f4 [16]
-0.1598813 -0.36758417 -0.08665376 0.0793937 -0.115933515 -0.16607313 0.17727078 -0.5571133
0.39913884 -0.5810184 0.10374793 -0.13066222 -0.21825111 0.6156143 0.18224098 -0.24356149
00000000: ecb7 23be fe33 bcbe 8777 b1bd 2a99 a23d
00000010: 8d6e edbd 130f 2abe 7986 353e fa9e 0ebf
00000020: ed5b cc3e 9fbd 14bf cb79 d43d 51cc 05be
00000030: 387d 5fbe e698 1d3f 619d 3a3e 2f68 79be

features.4.running_var f4 [16]
0.37064 0.30920488 0.15656324 0.4877512 0.21575013 0.09354824 0.4100907 0.60882694
0.8727924 0.37891006 0.81464523 0.21024068 0.15144391 0.5819382 0.26091728 0.8525723
00000000: 87c4 bd3e 1a50 9e3e 1d52 203e 86ba f93e
00000010: 9aed 5c3e 3896 bf3d 69f7 d13e 15dc 1b3f
00000020: 536f 5f3f 8000 c23e 978c 503f 5549 573e
00000030: 1d14 1b3e e7f9 143f f396 853e 2e42 5a3f

features.6.weight f4 [32, 16, 3, 3]
0.06007492 -0.04591199 -0.0247565 0.14369386 -0.11252364 0.04454497 -0.050092295 -0.0045550223
0.13442853 -0.016608158 0.12096225 -0.037633575 0.04548056 -0.116210856 -0.0066108294 -0.03608399
0.08781491 0.045012858 -0.041368093 -0.008179056 -0.03703718 0.013715635 0.016279086 -0.010521342
-0.049844824 0.014239724 -0.12413562 0.14344911 -0.025939872 -0.03624961 0.0038881802 0.03433382
-0.117573455 -0.002493495 0.015695378 0.06842263 -0.11814901 -0.05155048 0.06139926 -0.021148017
-0.06521499 -0.017782632 0.10348464 0.015189613 0.09688202 -0.033742588 0.010925297 -0.00948769
0.112769246 0.058000352 0.15619344 0.011739066 0.026816454 -0.072686434 0.00978872 -0.0020323878
0.0123846615 0.041983664 -0.09442254 0.0070444494 0.039504893 0.10469127 0.04954467 -0.017843755
0.00987706 0.100130245 -0.0006990133 -0.017006893 -0.062023394 -0.07857015 -0.07324018 0.0401035
0.00011030595 -0.14458261 -0.12235297 -0.026637115 -0.06578916 -0.075033784 -0.057203636 0.051580887
-0.19988032 0.093299136 -0.087089136 0.024670579 0.0612148 0.017239438 -0.0020699715 0.037462693
0.056943405 -0.04244775 -0.015102154 -0.041474946 -0.111777194 0.042807512 0.061777234 -0.022231232
0.027201897 -0.043119892 -0.0642078 -0.0006744126 0.013840441 -0.0067313015 -0.01895184 0.010889596
-0.14861253 0.0023305335 -0.010705533 0.036280748 0.05261026 0.0030333903 -0.12508976 0.04059281
-0.093311094 0.060173403 -0.0005072623 -0.19687633 -0.046119176 -0.015737003 0.17610367 -0.02297317
-0.00037783655 -0.11824983 -0.018446751 0.09882333 0.060854558 0.047518957 0.12290461 0.152047
0.00636951 -0.063384734 0.03865854 -0.10895251 0.023578038 -0.0024316304 -0.02194974 -0.0056341924
-0.049662642 0.006934571 -0.089889415 -0.081052616 0.04865763 0.018795513 -0.014920051 -0.019513665
0.06806685 0.031943675 -0.019109843 0.07325597 -0.0010203583 0.046032086 0.02293748 -0.008930125
0.18871696 0.050670903 -0.11343639 0.019029783 -0.035455506 0.103404626 0.009665818 -0.02373722
-0.13449511 -0.10102709 -0.1485625 -0.055455614 0.09585179 0.010180501 -0.09517515 0.09021643
-0.030823898 -0.036580786 0.06992113 0.071049094 0.009103781 0.11176509 0.02225293 -0.007357887
-0.14645888 -0.14798969 -0.018296897 0.103801005 -0.016644778 0.00940614 -0.097864725 0.006997077
-0.046371084 -0.0186969 0.061941523 -0.06236044 0.036197368 -0.0371066 0.004788979 -0.012444182
0.028716357 -0.04959949 -0.10573067 0.0332385 -0.0053050704 0.085271135 0.0041903458 -0.029168213
-0.058553237 0.10220026 0.0145545425 0.061104413 -0.091255344 0.16897067 -0.023537686 0.029444616
0.11376016 0.022549288 0.014281341 -0.034057647 0.038685307 0.06667962 0.0101891225 0.06614862
0.016088344 0.047861297 -0.025773467 -0.009281365 -0.05353917 -0.016738195 -0.03942848 -0.087326564
0.050523095 0.009706725 0.13721424 -0.084616065 -0.109232046 -0.018049743 0.06007804 0.0867826
0.040528882 0.1465824 0.010836982 0.029836498 -0.035940245 -0.011502313 -0.02388758 -0.002977924
0.15011905 -0.044068124 0.027546026 -0.07639744 -0.054808587 -0.0859036 -0.0013507486 0.07736244
-0.0058534457 -0.016291285 -0.0305577 0.012379729 0.06551459 0.02362398 0.032540627 -0.0019838298
00000000: 1f11 763d 360e 3cbd 25ce cabc 7c24 133e
00000010: cb72 e6bd c974 363d 942d 4dbd 4c42 95bb
00000020: a2a7 093e d50d 88bc 0ebb f73d aa25 1abd
00000030: d349 3a3d f5ff edbd a89f d8bb cecc 13bd
00000040: 4ed8 b33d 675f 383d 9771 29bd 7301 06bc
00000050: 4cb4 17bd 8bb7 603c b85b 853c b561 2cbc
00000060: 162a 4cbd bb4d 693c d13a febd 53e4 123e
00000070: db7f d4bc 797a 14bd d7d0 7e3b 9fa1 0c3d
00000080: 5aca f0bd e769 23bb 9893 803c 2a21 8c3d
00000090: 1cf8 f1bd 9926 53bd ca7d 7b3d 9b3e adbc
000000a0: 708f 85bd e2ac 91bc c1ef d33d dbdd 783c
000000b0: 156a c63d ab35 0abd 0400 333c 4272 1bbc
000000c0: 90f3 e63d c791 6d3d 2cf1 1f3e 3655 403c
000000d0: 2eae db3c a0dc 94bd de60 203c cf31 05bb
000000e0: 09e9 4a3c 10f7 2b3d 9b60 c1bd 20d5 e63b
000000f0: e2cf 213d 6068 d63d 5aef 4a3d 112d 92bc
00000100: 64d3 213c 1611 cd3d fd3d 37ba 0a52 8bbc
00000110: 3e0c 7ebd 63e9 a0bd f3fe 95bd 9143 243d
00000120: 0e54 e738 770d 14be 3294 fabd 1436 dabc
00000130: 78bc 86bd 50ab 99bd 5c4e 6abd 7b46 533d
00000140: 6dad 4cbe 9e13 bf3d ca5b b2bd f419 ca3c
00000150: 5fbc 7a3d b939 8d3c 5ca8 07bb 7b72 193d
00000160: 7d3d 693d b1dd 2dbd 066f 77bc a2e1 29bd
00000170: 71eb e4bd ee56 2f3d 200a 7d3d 461e b6bc
00000180: 83d6 de3c 7c9e 30bd 617f 83bd 10cb 30ba
00000190: 04c3 623c 4092 dcbb e440 9bbc 476a 323c
000001a0: e22d 18be ddbb 183b 4366 2fbc 1f9b 143d
000001b0: db7d 573d d8cb 463b 8817 00be a544 263d
000001c0: e319 bfbd 6378 763d ccf9 04ba f399 49be
000001d0: 76e7 3cbd e3ea 80bc 8554 343e 3b32 bcbc
000001e0: 5d18 c6b9 f82c f2bd a41d 97bc e363 ca3d
000001f0: a142 793d 3da3 423d 6ab5 fb3d 35b2 1b3e
00000200: 53b7 d03b dbcf 81bd 6b58 1e3d 7e22 dfbd
00000210: bb26 c13c fd5b 1fbb f1cf b3bc 089f b8bb
00000220: 0e6b 4bbd 663b e33b f117 b8bd eafe a5bd
00000230: 394d 473d 0cf9 993c 3b73 74bc 1fdb 9fbc
00000240: a266 8b3d 5fd7 023d 3f8c 9cbc 3a07 963d
00000250: 8bbd 85ba 248c 3c3d 62e7 bb3c a94f 12bc
00000260: 053f 413e 4b8c 4f3d 5751 e8bd 59e4 9b3c
00000270: cb39 11bd cec5 d33d 615d 1e3c 8f74 c2bc
00000280: 16b9 09be 4ae7 cebd c520 18be 6d25 63bd
00000290: f14d c43d 1ecc 263c 30eb c2bd 64c3 b83d
000002a0: 6682 fcbc bcd5 15bd cf32 8f3d 3082 913d
000002b0: 0628 153c 18e5 e43d c74b b63c 6e1a f1bb
000002c0: 51f9 15be 9c8a 17be 60e3 95bc 9f95 d43d
000002d0: a15a 88bc 361c 1a3c 4d6d c8bd bc47 e53b
000002e0: 9bef 3dbd 3e2a 99bc 65b6 7d3d a96d 7fbd
000002f0: b143 143d 17fd 17bd deec 9c3b afe2 4bbc
00000300: 913e eb3c d628 4bbd 5289 d8bd 1825 083d
00000310: 28d6 adbb a2a2 ae3d 2b4f 893b 2df2 eebc
00000320: 85d5 6fbd 5f4e d13d 2d76 6e3c 9f48 7a3d
00000330: 15e4 babd a606 2d3e 1bd2 c0bc d635 f13c
00000340: 16fb e83d 49b9 b83c 49fc 693c 0880 0bbd
00000350: 7c74 1e3d 538f 883d 47f0 263c ed78 873d
00000360: b4cb 833c 350a 443d e122 d3bc de10 18bc
00000370: e44b 5bbd 8a1e 89bc c27f 21bd 45d8 b2bd
00000380: 4ef1 4e3d f508 1f3c e481 0c3e 304b adbd
00000390: 0db5 dfbd 0edd 93bc 6414 763d 13bb b13d
000003a0: 9d01 263d b219 163e 998d 313c ac6b f43c
000003b0: 1436 13bd 3374 3cbc e3af c3bc 4629 43bb
000003c0: cfb8 193e c780 34bd 34a8 e13c 4376 9cbd
000003d0: f87e 60bd 3aee afbd 9a0b b1ba 3370 9e3d
000003e0: 43ce bfbb 4d75 85bc 2454 fabc 59d4 4a3c
000003f0: 832c 863d 1487 c13c 5249 053d 2403 02bb

features.7.running_mean f4 [32]
-0.2025156 0.06972066 0.46453717 -0.2641527 0.35293484 0.26396543 -0.18492362 0.44163105
0.19328487 0.15959513 -0.06529316 0.014873066 0.5213604 -0.64676094 0.21244316 0.47041613
-0.2083946 0.020896982 0.03574227 -0.074489795 -0.08456888 -0.039096203 -0.3676725 -0.4728358
-0.14303051 -0.05298194 0.24315004 -0.49466273 -0.5371114 -0.075249694 0.009045871 -0.16639172
00000000: 4060 4fbe b5c9 8e3d d1d7 ed3e 063f 87be
00000010: e0b3 b43e 7a26 873e 9e5c 3dbe 771d e23e
00000020: 78ec 453e e86c 233e 6cb8 85bd 29ae 733c
00000030: e077 053f 2092 25bf b38a 593e 62da f03e
00000040: 6565 55be 2630 ab3c 7d66 123d 1b8e 98bd
00000050: 7332 adbd 5723 20bd 923f bcbe 8917 f2be
00000060: 9776 12be 9703 59bd 53fc 783e 6f44 fdbe
00000070: 2280 09bf 831c 9abd 2235 143c 9762 2abe

features.7.running_var f4 [32]
0.15100193 0.34915355 0.4594348 0.5249719 0.39214727 0.7248485 0.4763708 0.73554695
0.29815075 0.34045744 0.19323756 0.14262174 0.3021504 0.6236447 0.2629221 0.99589235
0.72233737 0.78584856 0.45837054 0.1610191 0.23028935 0.43336192 0.7926133 0.33582792
0.19532818 0.12986141 0.43847695 0.31790605 0.7726267 0.20256835 0.22574843 0.18968071
00000000: 40a0 1a3e 41c4 b23e 0a3b eb3e 8f64 063f
00000010: 87c7 c83e ac8f 393f e0e6 f33e ce4c 3c3f
00000020: 37a7 983e 7050 ae3e 11e0 453e 6f0b 123e
00000030: 75b3 9a3e 2ea7 1f3f ba9d 863e cdf2 7e3f
00000040: 1aeb 383f 5f2d 493f 8baf ea3e 31e2 243e
00000050: f9d0 6b3e 9de1 dd3e b5e8 4a3f a3f1 ab3e
00000060: 1c04 483e 64fa 043e 0d80 e03e 95c4 a23e
00000070: ddca 453f 146e 4f3e 992a 673e a93b 423e

features.9.weight f4 [32, 32, 3, 3]
0.065442465 -0.099055104 0.0061525507 -0.06894913 -0.012801862 -0.12421818 -0.04275851 0.021547677
0.05182682 0.10991578 -0.070391804 -0.0464311 0.0045195334 -0.009473707 -0.016622446 0.027380386
0.08487809 0.038043685 -0.058788832 -0.02917927 0.07596005 0.06103605 -0.028896125 0.029447896
-0.008625656 -0.04585624 -0.010680371 0.023357097 -0.049463622 0.051950317 0.015154745 0.014524811
0.02374662 -0.04281379 -0.057960086 0.043408502 0.015868006 0.06684583 -0.03555793 0.004984665
0.008628847 -0.023575213 -0.020681204 0.04056176 -0.019137552 0.01656881 -0.025913788 -0.006930536
-0.04245619 0.07194778 0.024436524 -0.010727382 -0.017635658 0.020831782 0.025578814 -0.010596866
0.0585682 -0.016640326 -0.0036106934 0.005400082 0.018517843 0.004340318 -0.021085344 0.034692645
0.016754594 0.04834019 -0.02995209 -0.04777139 -0.010116577 0.091089584 0.020868855 -0.03243311
0.099454865 0.0055449125 0.012981865 -0.04266571 -0.07190828 0.09012422 -0.002646343 0.016057868
-0.07513273 0.030747982 -0.018359005 0.056975495 -0.06535273 0.045964632 -0.021085342 -0.067312546
-0.008781585 0.04035377 0.003743115 0.034884952 -0.003135221 -0.06845678 0.02719448 0.032952804
0.034790006 0.015964566 -0.04644308 0.0072595323 0.06576995 0.024535934 0.013731711 -0.024654405
-0.011229183 -0.04183724 0.07232498 0.019016864 -0.014009825 -0.061951432 -0.048744425 -0.031321514
-0.08633258 -0.05197025 0.00088443735 0.024226941 -0.05869876 -0.0663328 0.120392546 4.484418e-05
0.012847744 0.014547656 0.020886945 -0.009953557 -0.027921457 -0.059119545 -0.00011668327 0.014318752
0.008515984 -0.0155666005 -0.04754673 0.006856445 -0.0088415 -0.011338676 0.009393071 -0.07838775
-0.038886935 -0.05638987 0.032113787 -0.0056500183 0.0577805 -0.049905483 -0.03169341 0.017261792
0.018167282 0.014007553 0.027746039 -0.066149026 -0.047624778 -0.017910544 -0.01113458 -0.023842828
0.031683948 -0.10788835 -0.009547231 -0.07699141 -0.069186956 -0.06264188 0.022874238 0.0068008853
0.09336235 -0.037703592 0.0602181 -0.062399343 0.003147106 0.03834704 -0.029842267 -0.032751273
-0.055566937 0.031154893 0.020849945 -0.037811793 -0.051126745 0.0863126 -0.090080276 -0.03855781
0.043548368 0.044392157 0.055248126 0.14989461 0.030152299 -0.07141751 0.055852883 -0.04320715
-0.06323509 -0.091788664 -0.066607006 -0.13483945 0.036707044 0.018989356 0.026527405 -0.053641565
0.06545025 -0.02747863 -0.063229874 0.018802842 -0.018405592 0.029925901 0.05523672 -0.04640144
0.006685615 -0.013829383 0.07066783 -0.050186675 -0.03059859 0.060352698 0.046995632 -0.010401709
0.05174941 0.009125555 -0.034416854 -0.0016860977 0.04910947 0.1148182 0.014297503 0.038085386
0.04340995 -0.08056744 -0.08399054 -0.06564658 -0.040127844 0.0063470737 -0.02096519 0.058510527
-0.032783136 -0.102946356 -0.02790765 -0.0059623113 0.0132060535 0.08349622 -0.09802385 0.10644747
0.0032744764 0.04517429 0.032470826 -0.04630623 0.06367656 0.016727367 -0.0006690244 -0.08982607
0.07489781 0.0019265444 -0.07373182 0.11614634 -0.004914227 0.029685566 -0.011401937 0.021851173
-0.08633021 -0.085605696 -0.10505626 -0.045367192 0.018915934 -0.0390476 -0.039412078 -0.035606172
00000000: b306 863d 67dd cabd 569b c93b 3435 8dbd
00000010: e7be 51bc 1a66 febd 8c23 2fbd c184 b03c
00000020: 5c48 543d 861b e13d 9429 90bd 8a2e 3ebd
00000030: 9818 943b 9b37 1bbc cc2b 88bc d54c e03c
00000040: 90d4 ad3d b2d3 1b3d 8fcc 70bd 5d09 efbc
00000050: f190 9b3d f000 7a3d 91b7 ecbc b73c f13c
00000060: a052 0dbc c1d3 3bbd b9fc 2ebc 6257 bf3c
00000070: 5e9a 4abd dbc9 543d 9c4b 783c 79f9 6d3c
00000080: 4688 c23c 835d 2fbd 8e67 6dbd 1dcd 313d
00000090: 9ffd 813c 77e6 883d 31a5 11bd 6756 a33b
000000a0: 0260 0d3c ce20 c1bc a16b a9bc 1724 263d
000000b0: 5bc6 9cbc 50bb 873c 2749 d4bc 8d19 e3bb
000000c0: 8be6 2dbd 5c59 933d 1b2f c83c e7c1 2fbc
000000d0: a878 90bc 6aa7 aa3c a98a d13c 7a9e 2dbc
000000e0: 35e5 6f3d 4b51 88bc 62a1 6cbb 2cf3 b03b
000000f0: bbb2 973c 3a39 8e3b 2cbb acbc e019 0e3d
00000100: ee40 893c 5d00 463d 165e f5bc efab 43bd
00000110: 00c0 25bc 2d8d ba3d 29f5 aa3c 95d8 04bd
00000120: feae cb3d 19b2 b53b e3b1 543c 3dc2 2ebd
00000130: a644 93bd 0c93 b83d 456e 2dbb ca8b 833c
00000140: 30df 99bd 31e3 fb3c a065 96bc 235f 693d
00000150: a7d7 85bd 6945 3c3d 2bbb acbc 29db 89bd
00000160: a3e0 0fbc ff49 253d 0d4f 753b 86e3 0e3d
00000170: 4878 4dbb 1133 8cbd f5c6 de3c 85f9 063d
00000180: f77f 0e3d 1fc8 823c 193b 3ebd 5fe1 ed3b
00000190: 65b2 863d 95ff c83c f8fa 603c 09f8 c9bc
000001a0: 9bfa 37bc 875d 2bbd 1e1f 943d 41c9 9b3c
000001b0: 7789 65bc c9c0 7dbd 3ca8 47bd fd4a 00bd
000001c0: 23cf b0bd c2de 54bd 96d9 673a 9477 c63c
000001d0: 1c6e 70bd 7ed9 87bd 5e90 f63d 1217 3c38
000001e0: 587f 523c 4b59 6e3c 191b ab3c 3e14 23bc
000001f0: 8abb e4bc 5627 72bd dbb3 f4b8 3399 6a3c
00000200: a086 0b3c 0e0b 7fbc 5cc0 42bd 08ac e03b
00000210: f0db 10bc dbc5 39bc 65e5 193c c289 a0bd
00000220: e847 1fbd 10f9 66bd bf89 033d ca23 b9bb
00000230: 3fab 6c3d b169 4cbd f3d0 01bd 9a68 8d3c
00000240: 8dd3 943c f07f 653c a94b e33c 2479 87bd
00000250: 3312 43bd 22b9 92bc d06d 36bc 0952 c3bc
00000260: 07c7 013d 91f4 dcbd fd6b 1cbc acad 9dbd
00000270: e4b1 8dbd 634a 80bd c162 bb3c f6d9 de3b
00000280: c234 bf3d 156f 1abd 41a7 763d 7496 7fbd
00000290: ad3f 4e3b c911 1d3d c577 f4bc 3326 06bd
000002a0: 289a 63bd 8c38 ff3c 81cd aa3c 8ae0 1abd
000002b0: 476a 51bd a9c4 b03d 027c b8bd cbee 1dbd
000002c0: c65f 323d 8dd4 353d dc4b 623d f97d 193e
000002d0: f401 f73c 5843 92bd fec5 643d fbf9 30bd
000002e0: 6681 81bd b2fb bbbd 4169 88bd 5a13 0abe
000002f0: 205a 163d 918f 9b3c 0050 d93c 42b7 5bbd
00000300: c80a 863d dd1a e1bc aa7e 81bd 6b08 9a3c
00000310: 53c7 96bc 2a27 f53c e63f 623d 700f 3ebd
00000320: 0113 db3b a394 62bc 4cba 903d 8b90 4dbd
00000330: e5a9 fabc 6434 773d 7e7e 403d ee6b 2abc
00000340: 30f7 533d 5a83 153c b0f8 0cbd 0d00 ddba
00000350: 0327 493d ce25 eb3d 1340 6a3c 6cff 1b3d
00000360: a2ce 313d 8b00 a5bd 3b03 acbd b771 86bd
00000370: 185d 24bd 1dfb cf3b 31bf abbc bca8 6f3d
00000380: 9c47 06bd 8ad5 d2bd 969e e4bc 7e5f c3bb
00000390: 345e 583c 1100 ab3d bac0 c8bd 2201 da3d
000003a0: 9998 563b ad08 393d 2100 053d 9aab 3dbd
000003b0: db68 823d d507 893c 7861 2fba bbf6 b7bd
000003c0: 0664 993d 1a84 fc3a b500 97bd 22de ed3d
000003d0: 8607 a1bb 252f f33c 31cf 3abc 3b01 b33c
000003e0: e5cd b0bd 0a52 afbd bd27 d7bd f3d2 39bd
000003f0: 97f5 9a3c 60f0 1fbd 8f6e 21bd c7d7 11bd

features.10.running_mean f4 [32]
-0.12633719 0.0017290103 -0.70705736 -0.44021887 0.66326386 -0.13196218 0.2463456 -0.55986327
0.50153077 0.49383685 -0.20364563 -0.2983718 0.38104832 -1.1918095 0.0014988014 0.2102125
-0.35080278 0.11841359 -0.335656 0.30215213 -0.6885477 -0.35169134 -0.17073347 -0.30060855
-0.48263478 0.10161882 -0.24011956 -0.036811735 0.072381616 0.20867719 0.21976799 0.2343619
00000000: 895e 01be f59f e23a b601 35bf 5e64 e1be
00000010: a9cb 293f 1821 07be 0542 7c3e 3353 0fbf
00000020: 5264 003f 2fd8 fc3e 7b88 50be 30c4 98be
00000030: c418 c33e 378d 98bf 6e73 c43a f241 573e
00000040: 6c9c b3be d382 f23d 1adb abbe afb3 9a3e
00000050: a944 30bf e310 b4be c1d4 2ebe 5de9 99be
00000060: e81b f7be 871d d03d e7e1 75be e7c7 16bd
00000070: d03c 943d 79af 553e dc0a 613e 91fc 6f3e

features.10.running_var f4 [32]
0.41445133 0.7492586 0.8050558 0.929869 1.0691326 0.2382261 1.5026757 0.43402502
0.8603878 1.1490519 0.53318197 0.60101867 0.47798494 0.2956588 0.23691796 0.6026621
0.41356283 0.8259609 0.71665335 0.47596827 0.18774028 0.41013956 0.5056991 0.7244826
0.63200706 0.5751883 0.6491904 0.39456454 0.5782804 0.7453761 0.9091155 0.77293104
00000000: f732 d43e 69cf 3f3f 2318 4e3f e50b 6e3f
00000010: 56d9 883f 8bf1 733e ad57 c03f 8738 de3e
00000020: 6042 5c3f 2214 933f 9d7e 083f 5cdc 193f
00000030: 71ba f43e 9760 973e 9f9a 723e 1048 1a3f
00000040: 82be d33e 2c72 533f 9876 373f 1db2 f33e
00000050: fd3e 403e d0fd d13e 7f75 013f b177 393f
00000060: 37cb 213f 8a3f 133f 5831 263f 5d04 ca3e
00000070: 2f0a 143f f8d0 3e3f cbbb 683f cfde 453f

features.12.weight f4 [64, 32, 3, 3]
-0.021930391 -0.059087884 -0.004757855 -0.0018954407 -0.021279726 -0.008969813 -0.040727366 0.0411564
0.038213804 0.05525628 0.04731257 0.012312793 -0.09413893 -0.030572232 -0.106300734 0.008722093
0.068583794 -0.07305763 -0.028311558 0.013339248 0.021326333 -0.03882668 0.08283343 -0.025176635
-0.0045588096 0.06648321 -0.017391406 0.046550658 0.050951533 0.03844072 -0.01360453 0.04434332
0.053597875 -0.005832239 0.026047846 -0.047433373 0.051791813 0.091117695 -0.03928036 -0.07709073
-0.038671326 -0.072712034 -0.10455017 -0.026162134 0.14920321 0.009913193 -0.07461633 -0.058216684
0.024400989 0.019915842 0.015706483 0.029057069 -0.013746875 0.03171854 0.10689441 0.054759365
-0.010834618 -0.024050832 -0.023119425 0.005933525 0.049431123 0.09037175 0.050785407 0.020581806
0.013911818 -0.05563183 -0.017696688 -0.05388165 0.012917911 -0.036638696 0.003572669 0.00010934858
0.06609284 -0.017162865 0.0720922 0.012722255 -0.037370883 -0.030145368 -0.015966352 -0.043834336
-0.020157963 0.05448632 0.04071646 -0.011346111 0.03604142 0.03929073 0.10397603 -0.044525634
0.038213994 0.050145153 0.014790915 0.021876235 0.006785309 -0.03144696 0.029864378 -0.030546667
0.015216916 -0.042421658 0.041320533 -0.058862727 -0.003868958 0.03863904 -0.052295323 0.0017220078
-0.00789477 0.027312383 -0.043817177 0.02069673 -0.010759084 -0.019118479 -0.066594675 0.044032235
0.034427103 0.012245934 -0.07702498 -0.028255071 -0.011431493 -0.03150828 0.023806082 0.015535476
-0.0066090096 0.047957886 0.0009679712 0.050299004 -0.053889457 -0.054100186 -0.03908979 0.10729691
-0.03768603 -0.04593657 0.037283134 -0.0030324552 0.08682392 0.02659254 -0.073533 0.006941549
0.082853936 -0.06774289 0.05844055 0.015916025 0.08900227 0.023426156 -0.013261538 -0.06042904
-0.014272596 0.030581592 -0.04883432 -0.0021129635 0.0127073815 -0.084852204 0.09875783 0.03406022
-0.015544035 0.060300287 0.058681138 -0.0010257917 0.0922959 -0.02689945 -0.07860083 -0.1032463
0.022685384 -0.017880283 -0.0013393684 0.023119647 -0.05120276 0.077586986 -0.03509501 0.043106865
-0.013295441 -0.030615985 0.032234292 0.03697047 0.04037286 -0.005515576 0.022438055 0.008514943
-0.0847975 -0.027641742 -0.029106716 -0.06274217 0.043123797 -0.031985644 0.05090018 -0.09104622
0.00880029 0.07232415 0.016692225 -0.04688154 -0.023745473 -0.014860061 0.06623675 0.039446685
-0.005169251 0.019426623 -0.11937069 -0.007039379 -0.09262935 0.06565887 0.083294556 -0.028777158
-0.03703116 -0.04086767 -0.07353348 0.05008934 0.011845064 -0.04452008 -0.04432395 -0.022915008
0.013943431 0.037115034 0.05389718 -0.063597135 0.018179143 0.027345164 0.07114828 0.014204987
0.050367694 -0.026893003 0.02395645 -0.0033232397 0.06835047 0.024057275 0.13179524 0.012224508
-0.0010694618 -0.063865855 0.040927704 0.0141671775 0.00031512155 0.034046292 -0.014193447 0.03510727
-0.016556203 -0.028972505 -0.019051982 -0.04074616 -0.015849195 0.021468274 -0.004596314 0.021926414
-0.106914885 -0.039492115 -0.015771704 -0.040400032 0.017948233 -0.024316274 -0.02953131 -0.013535255
-0.01506476 0.09543457 0.0881261 0.017717287 -0.080991656 0.039152 -0.07697249 -0.016958809
00000000: 5da7 b3bc 2306 72bd c8e7 9bbb 7070 f8ba
00000010: d252 aebc 1ff6 12bc bdd1 26bd 9d93 283d
00000020: 1486 1c3d 6954 623d d3ca 413d 99bb 493c
00000030: e9cb c0bd 9e72 fabc 33b4 d9bd 1ce7 0e3c
00000040: a975 8c3d 3d9f 95bd a4ed e7bc dc8c 5a3c
00000050: 90b4 ae3c ba08 1fbd 93a4 a93d 3b3f cebc
00000060: 1162 95bb 5928 883d 6c78 8ebc e7ab 3e3d
00000070: 8eb2 503d 0474 1d3d 89e5 5ebc 57a1 353d
00000080: 7289 5b3d 5e1c bfbb 4b62 d53c 7f49 42bd
00000090: a723 543d ea9b ba3d 71e4 20bd bfe1 9dbd
000000a0: d365 1ebd 0cea 94bd 661e d6bd f951 d6bc
000000b0: bac8 183e f26a 223c 72d0 98bd 9e74 6ebd
000000c0: 95e4 c73c 8c26 a33c e2aa 803c 1709 ee3c
000000d0: 933a 61bc 4deb 013d 75eb da3d 5b4b 603d
000000e0: ae83 31bc 4006 c5bc f364 bdbc 046e c23b
000000f0: 4a78 4a3d d314 b93d 5c04 503d 2d9b a83c
00000100: 65ee 633c 34de 63bd a5f8 90bc 01b3 5cbd
00000110: a5a5 533c 7512 16bd 7123 6a3b 1252 e538
00000120: af5b 873d 2399 8cbc 13a5 933d 0171 503c
00000130: 3612 19bd 6bf3 f6bc decb 82bc a28b 33bd
00000140: 5022 a5bc 0c2d 5f3d 4ec6 263d 0ae5 39bc
00000150: 2ba0 133d 51ef 203d 63f1 d43d 8360 36bd
00000160: 4786 1c3d 0165 4d3d 9855 723c ca35 b33c
00000170: 4c57 de3b 87ce 00bd 24a6 f43c 013d fabc
00000180: 5f50 793c 55c2 2dbd b83f 293d 0b1a 71bd
00000190: 588e 7dbb f843 1e3d 9f33 56bd feb4 e13a
000001a0: 1159 01bc 38be df3c a479 33bd 308c a93c
000001b0: de46 30bc 5b9e 9cbc ca62 88bd 255b 343d
000001c0: 6f03 0d3d 2ca3 483c 46bf 9dbd 2e77 e7bc
000001d0: 284b 3bbc d40e 01bd f904 c33c 8288 7e3c
000001e0: 6490 d8bb 7d6f 443d 73bf 7d3a 5406 4e3d
000001f0: 31bb 5cbd 2898 5dbd 9e1c 20bd 7bbe db3d
00000200: ab5c 1abd fc27 3cbd 33b6 183d 28bc 46bb
00000210: bdd0 b13d 99d8 d93c 7898 96bd ef75 e33b
00000220: 53af a93d c9bc 8abd 5c5f 6f3d 5362 823c
00000230: d246 b63d 36e8 bf3c ec46 59bc 7184 77bd
00000240: 9bd7 69bc 3f86 fa3c 7f06 48bd a579 0abb
00000250: 9f32 503c fec6 adbd 8c41 ca3d bb82 0b3d
00000260: 68ac 7ebc 6ffd 763d a25b 703d dc73 86ba
00000270: a205 bd3d 3c5c dcbc 79f9 a0bd cc72 d3bd
00000280: b3d6 b93c ac79 92bc bf8d afba 6a65 bd3c
00000290: fcb9 51bd ede5 9e3d c9bf 0fbd d390 303d
000002a0: 1fd5 59bc 60ce fabc 1b08 043d 596e 173d
000002b0: 035e 253d 01bc b4bb 03d0 b73c 4282 0b3c
000002c0: 50aa adbd ef70 e2bc 3571 eebc f87e 80bd
000002d0: 94a2 303d 6103 03bd b57c 503d 7176 babd
000002e0: 172f 103c af1e 943d 22be 883c dc06 40bd
000002f0: de85 c2bc 9d77 73bc 22a7 873d d992 213d
00000300: d262 a9bb 9524 9f3c 9f78 f4bd 97aa e6bb
00000310: 75b4 bdbd 2878 863d 5696 aa3d 13be ebbc
00000320: fcad 17bd dc64 27bd b998 96bd 7b2a 4d3d
00000330: cd11 423c b05a 36bd 088d 35bd 41b8 bbbc
00000340: fd72 643c ef05 183d 4ac3 5c3d 373f 82bd
00000350: 6dec 943c f702 e03c 30b6 913d 09bc 683c
00000360: 5b4e 4e3d b74e dcbc 5140 c43c b6ca 59bb
00000370: 55fb 8b3d c313 c53c 55f5 063e 4e49 483c
00000380: 2f2d 8cba 1acc 82bd cfa3 273d 731d 683c
00000390: e636 a539 2074 0b3d a28b 68bc a4cc 0f3d
000003a0: e0a0 87bc bf57 edbc e712 9cbc 72e5 26bd
000003b0: 2cd6 81bc 3cde af3c ad9c 96bb 069f b33c
000003c0: 31f6 dabd 7cc2 21bd a933 81bc 817a 25bd
000003d0: 2c08 933c ec32 c7bc a5eb f1bc f9c2 5dbc
000003e0: 2fd2 76bc 3373 c33d 757b b43d d823 913c
000003f0: f4de a5bd d95d 203d c1a3 9dbd 33ed 8abc

features.13.running_mean f4 [64]
0.26080155 -0.17898378 0.38158226 -0.04494792 -0.50508577 0.07871232 0.47486833 -0.23907828
-0.31847674 0.1852886 0.10289807 0.5053779 -0.7015342 0.06722141 -0.48415524 0.5594637
-0.48753163 0.61605173 0.116699204 0.6311764 -0.28399968 -0.24419498 0.51511234 -0.2573604
-0.19137195 -0.43070215 -0.60425603 0.18104221 -0.21177669 0.356924 0.44105294 -0.54874706
-0.019166674 -0.49755585 0.31847522 -0.59281576 0.13795912 -0.05343233 -0.57221997 0.27214193
-0.23835559 0.5764412 -0.5837402 -0.71557766 0.047144968 -0.3595676 0.19714372 -0.28290144
-0.3598762 0.42080256 -0.35768974 0.74732554 0.017492145 -0.7354631 0.2992106 0.2507581
-0.03419926 0.44051355 -0.17847022 -0.56042725 0.3808567 0.60349965 0.10011511 -0.14828373
00000000: c887 853e 8647 37be c05e c33e 4f1b 38bd
00000010: 4d4d 01bf ed33 a13d f121 f33e f0d0 74be
00000020: 620f a3be 4bbc 3d3e 39bc d23d 7260 013f
00000030: bf97 33bf 61ab 893d 32e3 f7be 0339 0f3f
00000040: bf9d f9be 91b5 1d3f feff ee3d c794 213f
00000050: 6868 91be 400e 7abe 67de 033f bec4 83be
00000060: 02f7 43be fe84 dcbe 86b0 1abf 2163 393e
00000070: fddb 58be bebe b63e b1d1 e13e b07a 0cbf
00000080: 6e03 9dbc a4bf febe 2f0f a33e c6c2 17bf
00000090: 2845 0d3e dcdb 5abd 027d 12bf 3056 8b3e
000000a0: 7d13 74be a791 133f ff6f 15bf 1930 37bf
000000b0: 151b 413d 3f19 b8be 0be0 493e 75d8 90be
000000c0: b141 b8be 6f73 d73e 1c23 b7be ba50 3f3f
000000d0: b04b 8f3c 4f47 3cbf 2232 993e 5e63 803e
000000e0: 8614 0cbd fe8a e13e e6c0 36be 2978 0fbf
000000f0: a6ff c23e f47e 1a3f 2709 cd3d b1d7 17be

features.13.running_var f4 [64]
0.61359364 0.22816867 0.2813092 0.57339793 0.6191063 0.41635442 0.20352225 0.30742025
0.19445278 0.72080445 0.41908967 0.6163996 0.31363308 0.54802746 0.43055686 0.53939605
0.7138414 0.41079178 0.26465398 0.6590805 0.29302526 0.67794883 0.58579475 0.2596559
0.5562176 0.24471521 0.8181363 0.3982773 0.34054706 0.6466538 0.4671267 0.3314307
0.6755382 0.33079448 0.6289332 0.18701588 0.45457444 0.67194957 0.2893811 0.90450144
0.44018412 0.5065014 0.4160805 0.24153613 0.39958617 0.5124513 0.896776 0.48380104
0.2624793 0.21794292 0.28299502 0.6706591 0.5861419 0.18767944 0.46639788 1.1267436
0.3392773 0.45957026 0.25682548 0.45281106 0.24849997 0.38356745 0.24792847 0.53138065
00000000: 7914 1d3f 0ca5 693e c207 903e 35ca 123f
00000010: c07d 1e3f 682c d53e 2368 503e 3066 9d3e
00000020: a11e 473e a486 383f ec92 d63e 5dcc 1d3f
00000030: 8494 a03e 874b 0c3f f371 dc3e dc15 0a3f
00000040: 4fbe 363f 4d53 d23e ba80 873e 80b9 283f
00000050: 6807 963e 0e8e 2d3f a5f6 153f 9ef1 843e
00000060: 4764 0e3f a096 7a3e 6171 513f 01eb cb3e
00000070: 2f5c ae3e 1a8b 253f 3b2b ef3e 49b1 a93e
00000080: 12f0 2c3f e55d a93e c401 213f 1781 3f3e
00000090: fbbd e83e e304 2c3f c229 943e 688d 673f
000000a0: d05f e13e 13aa 013f 8108 d53e 3f55 773e
000000b0: 8f96 cc3e 0230 033f 1d93 653f c5b4 f73e
000000c0: b063 863e 6e2c 5f3e b9e4 903e 51b0 2b3f
000000d0: 650d 163f 0a2f 403e b4cb ee3e 2239 903f
000000e0: c1b5 ad3e cb4c eb3e a17e 833e dad6 e73e
000000f0: c776 7e3e f462 c43e f6e0 7d3e 9008 083f

features.15.weight f4 [64, 64, 3, 3]
0.004651066 0.03113335 0.023949413 -0.058206193 -0.03175269 -0.0036099842 0.04633323 -0.022430955
-0.00977816 0.014544166 -0.046515334 -0.035872065 -0.020928856 0.03660256 -0.029251346 -0.0060170903
0.014176747 0.01403537 -0.05817714 -0.012380062 -0.01663966 -0.08963167 -0.036810625 -0.007203847
-0.038092487 0.04243316 0.031511515 -0.014896537 -0.028104782 0.0076678614 -0.005933977 0.022671903
-0.038117763 0.00016709745 0.010735663 0.0011979409 0.01044512 0.05942242 -0.01512441 -0.021865284
0.045463737 0.009832854 -0.09000164 0.022573702 0.014168544 0.034665685 -0.027599545 -0.0025654763
-0.004908055 0.06598885 -0.020839313 0.027391667 -0.015630262 -9.217953e-05 0.041336644 -0.030679598
-0.0339389 -0.021788942 0.042303864 -0.024545722 -0.043952804 -0.009645314 0.034641486 0.03151136
0.03428276 0.0020082851 -0.037504345 -0.023983276 -0.008977279 -0.07596853 -0.019144438 -0.05409826
0.011903403 -0.024497593 0.047073476 -0.0037918217 0.04664479 0.019580977 -0.0068610813 0.045952555
0.02989088 -0.043048013 -0.02503308 -0.0068944227 0.027844239 0.016274817 -0.028845351 0.01404031
0.021638347 -0.03344894 -0.09959409 0.00768767 -0.013893281 0.023848802 0.0484753 -0.019672375
0.010150658 0.0019529096 0.011799936 -0.0009687909 -0.0052757044 -0.012952361 -0.037598055 0.0061631505
-0.033083316 -0.038353287 0.029648839 -0.006999077 0.020864602 0.030505097 0.011596161 0.0013127469
0.009297585 0.057827353 0.06536757 0.019660307 -0.071768634 0.00914378 0.045258977 -0.018283341
-0.050129008 0.027033351 -0.008422214 -0.0056431904 -0.05986466 -0.028040444 -0.005114169 -0.05138589
-7.342982e-05 0.03935379 0.07506712 -0.018272355 0.003757098 -0.014216833 -0.024833024 -0.04790646
0.0503996 -0.0032689322 -0.03520148 -0.04603228 0.025240082 -0.00019639602 -0.043051608 0.018737769
-0.0030171773 0.0018302335 0.097849555 0.0019739375 -0.023650479 0.057274893 0.028467966 0.009747368
0.005284461 0.001057893 -0.010956669 -0.058606595 0.0056308974 0.02193346 -0.0075580035 -0.022934321
0.04710605 0.028158886 -0.010960733 0.06218647 0.024733631 0.06777947 -0.05001798 -0.02063495
0.076957084 0.0059892507 0.03941829 -0.097051285 -0.055228923 -0.018082704 0.008772842 -0.03853966
-0.02845349 0.015107853 -0.0128820725 0.00351989 -0.032977086 -0.009206555 0.065182954 -0.051499825
0.069572665 0.09312361 0.09414233 0.013027514 0.049413238 0.002868794 0.021559546 -0.02253833
-0.013530894 -0.03130482 -0.016568549 -0.01699566 -0.017426496 -0.05399928 0.0093444465 -0.024204448
0.025798665 -0.047751386 0.011918227 0.06542202 0.058738448 -0.04949187 0.00044848752 -0.014238283
0.031637892 -0.0145823965 -0.012257682 0.0949195 0.050942563 -0.03623676 0.011797507 -0.01688954
-0.027301157 0.037072144 0.002404098 0.040108867 0.0414443 0.020542441 0.010722299 0.014345862
0.018073257 0.044104557 -0.010722604 0.019147953 -0.015122636 -0.0008005519 -0.049887277 -0.014390255
0.007163009 -0.0065067145 -0.036064547 0.027888888 0.036558807 -0.06302396 0.004625706 -0.04131015
-0.06931622 0.023996867 -0.049568594 -0.018253002 0.0039558406 -0.0015793802 -0.024254307 0.00017547687
0.026373986 0.016329125 0.02430585 0.011910995 0.018960608 0.09439089 -0.046895653 -0.032248974
00000000: f867 983b 5e0b ff3c 8f31 c43c 9e69 6ebd
00000010: 1c0f 02bd 7c95 6cbb eac7 3d3d 1fc1 b7bc
00000020: 9334 20bc a74a 6e3c dd86 3ebd 96ee 12bd
00000030: fe72 abbc 91ec 153d 85a0 efbc 032b c5bb
00000040: 9645 683c 9cf4 653c 274b 6ebd bed5 4abc
00000050: e54f 88bc cf90 b7bd bdc6 16bd 400e ecbb
00000060: de06 1cbd 65ce 2d3d 3812 013d 9b10 74bc
00000070: 003c e6bc af42 fb3b cf71 c2bb 6dba b93c
00000080: 5f21 1cbd e136 2f39 a2e4 2f3c 3a04 9d3a
00000090: 0222 2b3c ec64 733d 60cc 77bc d31e b3bc
000000a0: 2f38 3a3d fb19 213c c852 b8bd 7cec b83c
000000b0: 2e23 683c 9bfd 0d3d 7118 e2bc 8d21 28bb
000000c0: c0d3 a0bb 2a25 873d 35b7 aabc 7d64 e03c
000000d0: 090b 80bc 8250 c1b8 9d50 293d c853 fbbc
000000e0: 8403 0bbd b97e b2bc d146 2d3d 1c14 c9bc
000000f0: db07 34bd 6107 1ebc 3be4 0d3d 0e12 013d
00000100: 146c 0c3d 6f9d 033b 289e 19bd 9378 c4bc
00000110: 7015 13bc 6395 9bbd ccd4 9cbc 2396 5dbd
00000120: 7e06 433c 2daf c8bc 1ed0 403d 3680 78bb
00000130: 9b0e 3f3d 4968 a03c ecd2 e0bb bf38 3c3d
00000140: b8dd f43c 1d53 30bd 2c12 cdbc 9cea e1bb
00000150: 9a19 e43c c452 853c 164d ecbc 5409 663c
00000160: e742 b13c c101 09bd fcf7 cbbd dae8 fb3b
00000170: a5a0 63bc 905e c33c 098e 463d f627 a1bc
00000180: f24e 263c c6f8 ff3a 8554 413c 75f6 7dba
00000190: d1df acbb 2436 54bc 6b00 1abd 41f4 c93b
000001a0: 5f82 07bd 5618 1dbd 1fe2 f23c 8358 e5bb
000001b0: 3eec aa3c d3e5 f93c d3fd 3d3c 7a10 ac3a
000001c0: e654 183c 60dc 6c3d 6fdf 853d a70e a13c
000001d0: 6ffb 92bd cbcf 153c 7a61 393d f2c6 95bc
000001e0: 1354 4dbd 0c75 dd3c 53fd 09bc 83ea b8bb
000001f0: a534 75bd 13b5 e5bc c294 a7bb 037a 52bd
00000200: 56fe 99b8 7131 213d cabc 993d e8af 95bc
00000210: a539 763b b8ed 68bc a06e cbbc 9039 44bd
00000220: d06f 4e3d 953b 56bb 6d2f 10bd 588c 3cbd
00000230: 4ac4 ce3c a8ef 4db9 e256 30bd f37f 993c
00000240: d6bb 45bb 72e4 ef3a 5965 c83d 2d5d 013b
00000250: a6be c1bc 1499 6a3d a735 e93c 6db3 1f3c
00000260: 4629 ad3b 00a9 8a3a 9a83 33bc 780d 70bd
00000270: 6483 b83b cdad b33c 21a9 f7bb c2e0 bbbc
00000280: 46f2 403d 77ad e63c a594 33bc 3db7 7e3d
00000290: 2f9e ca3c f6cf 8a3d a7df 4cbd a00a a9bc
000002a0: ad9b 9d3d 7a41 c43b 1375 213d d3c2 c6bd
000002b0: b937 62bd 2e22 94bc f7bb 0f3c c3db 1dbd
000002c0: 4b17 e9bc ee86 773c 540f 53bc f4ad 663b
000002d0: fb12 07bd 17d7 16bc a47e 853d 7bf1 52bd
000002e0: 1d7c 8e3d 97b7 be3d b2cd c03d 5b71 553c
000002f0: 8965 4a3d 6002 3c3b a59d b03c 4ea2 b8bc
00000300: afb0 5dbc 7c39 00bd c4ba 87bc 7b3a 8bbc
00000310: 03c2 8ebc 592e 5dbd 7319 193c 6848 c6bc
00000320: b957 d33c f596 43bd ab44 433c fbfb 853d
00000330: ba97 703d fdb7 4abd fa22 eb39 b047 69bc
00000340: bc96 013d 01eb 6ebc 72d4 48bc 2865 c23d
00000350: 26a9 503d ff6c 14bd 554a 413c ef5b 8abc
00000360: ada6 dfbc f6d8 173d 128e 1d3b 3249 243d
00000370: 80c1 293d 9f48 a83c 95ac 2f3c e80a 6b3c
00000380: 5e0e 943c fba6 343d dcad 2fbc 2bdc 9c3c
00000390: efc4 77bc 21dc 51ba 9a56 4cbd 1bc5 6bbc
000003a0: adb7 ea3b 4736 d5bb 6bb8 13bd 3d77 e43c
000003b0: b0be 153d b512 81bd 3c93 973b d534 29bd
000003c0: aaf5 8dbd 1495 c43c 7008 4bbd 5287 95bc
000003d0: ff9f 813b 3503 cfba f8b0 c6bc 3700 3839
000003e0: 420e d83c a8c4 853c 101d c73c 5526 433c
000003f0: 4753 9b3c 0350 c13d a815 40bd 8017 04bd

features.16.running_mean f4 [64]
-0.01630893 -0.54762876 -0.19568962 -0.068497606 0.8771618 -0.7813182 0.1230048 0.1198477
-0.39342594 0.46641237 -0.36360002 -0.21092069 0.30769402 0.09172249 0.09986767 -0.20606712
0.37825796 -0.6588799 -0.26126254 -0.082352 -0.24468517 0.21484262 0.035846613 0.45678964
-0.47529888 0.04485971 -0.27823383 0.2506821 0.24863069 0.37981245 0.56652445 0.56282514
0.77447253 0.25973448 -0.080531895 0.14226465 -0.41738862 0.19099344 0.49005714 -0.23665722
0.14005756 0.04336757 0.43377358 -0.4996218 0.27620286 -0.5795902 0.48038995 0.21112058
0.22629188 -0.53955436 -0.088458106 -0.2870287 0.19182031 -0.09311892 0.21543032 0.4469141
-0.07668303 -0.026397053 -0.15018056 0.43127906 0.0970012 -0.28314853 0.4566133 0.11429747
00000000: 4e9a 85bc 6631 0cbf dc62 48be 7948 8cbd
00000010: ad8d 603f 7804 48bf f1e9 fb3d b672 f53d
00000020: 206f c9be 9acd ee3e c829 babe 98fb 57be
00000030: 128a 9d3e 00d9 bb3d 6c87 cc3d 4203 53be
00000040: 07ab c13e 5aac 28bf 34c4 85be 2aa8 a8bd
00000050: c08e 7abe b4ff 5b3e e6d3 123d 55e0 e93e
00000060: 605a f3be d1be 373d aa74 8ebe 6759 803e
00000070: 0b99 7e3e c776 c23e bf07 113f 4f15 103f
00000080: d543 463f ebfb 843e e8ed a4bd d3ad 113e
00000090: f6b3 d5be c993 433e c5e8 fa3e 4556 72be
000000a0: 406b 0f3e 31a2 313d 9217 de3e 6ece ffbe
000000b0: 766a 8d3e 0660 14bf acf5 f53e fe2f 583e
000000c0: 0fb9 673e 3c20 0abf 8629 b5bd 6df5 92be
000000d0: 8b6c 443e 22b5 bebd c499 5c3e edd1 e43e
000000e0: fe0b 9dbd a23e d8bc efc8 19be 9cd0 dc3e
000000f0: 91a8 c63d d8f8 90be 38c9 e93e cb14 ea3d

features.16.running_var f4 [64]
0.45176995 0.32010382 0.41515663 0.35069647 0.25019127 0.4461031 0.67557085 0.43981206
0.51484466 0.3446179 0.5575942 0.7670973 0.64160097 0.39458147 0.36911044 0.47642025
0.32824767 0.32927883 0.47327062 0.29818377 0.56842285 0.22461607 0.40245458 0.37656787
1.0968654 0.30108818 0.3024298 0.6350077 0.27945283 0.3467486 0.33260563 0.28559628
0.37876981 1.4930845 0.5743221 0.5602117 0.50937265 0.5345015 0.18289582 0.42086577
0.3371889 0.27023235 0.32470214 0.5810677 0.17809269 0.45118922 0.33277893 0.27726108
0.6775236 0.33563924 0.71790224 0.46497685 0.27403897 0.29290298 0.40365246 0.39362708
0.38985756 0.52453125 0.6558695 0.5375613 0.26854417 0.39472106 0.43592143 0.26596865
00000000: 644e e73e a6e4 a33e 698f d43e 7d8e b33e
00000010: 1219 803e a067 e43e 36f2 2c3f 0c2f e13e
00000020: dccc 033f c271 b03e 7ebe 0e3f 7d60 443f
00000030: f63f 243f 9506 ca3e 0bfc bc3e 5bed f33e
00000040: 1410 a83e 3c97 a83e 8750 f23e 8bab 983e
00000050: 2984 113f c101 663e 870e ce3e 81cd c03e
00000060: 1666 8c3f 3b28 9a3e 14d8 9a3e dd8f 223f
00000070: 7114 8f3e 0889 b13e 494b aa3e ad39 923e
00000080: 1eee c13e 651d bf3f c606 133f 096a 0f3f
00000090: 3f66 023f 17d5 083f 0b49 3b3e b87b d73e
000000a0: 06a4 ac3e e55b 8a3e 5c3f a63e dac0 143f
000000b0: ee5d 363e 4602 e73e 0062 aa3e 2af5 8d3e
000000c0: 3072 2d3f e8d8 ab3e 71c8 373f 7211 ee3e
000000d0: d64e 8c3e 61f7 953e 89ab ce3e 7d89 c93e
000000e0: 699b c73e ae47 063f 10e7 273f 9e9d 093f
000000f0: 9f7e 893e e118 ca3e 1831 df3e 0b2d 883e
